qnetwork.pth (torch, 120402 bytes, 6 tensors)

fc1.weight f4 [128, 80]
0	0x3ca41998	0.020031735
1	0x3cde9f2b	0.027175507
2	0xbdd84b0d	-0.1056119
3	0x3d7f160b	0.06227688
4	0xbdb0aa52	-0.08626236
5	0xbd92a2d8	-0.07159966
6	0xbd4cce91	-0.050001685
7	0xbd318de2	-0.0433482
8	0x3d768e66	0.060194395
9	0xbdbd9ad3	-0.09258046
10	0x3dd15c74	0.10222712
11	0x3d81b381	0.06333066
12	0x3d6e7b20	0.05822289
13	0x3cc77c05	0.02435113
14	0x3cef9037	0.029243572
15	0xbd6a4158	-0.057191223
16	0x3d3471c8	0.044053823
17	0xbdc8702d	-0.09787021
18	0xbdcdd479	-0.100502916
19	0x3d5610ff	0.052262302
20	0xbdb93c76	-0.09044735
21	0x3dc0c5ac	0.09412703
22	0xbd8751cd	-0.06607399
23	0x3d9103b6	0.07080786
24	0x3b31d455	0.0027134616
25	0x3d85e0a2	0.06536986
26	0x3d8d196d	0.06889615
27	0xbc3c133d	-0.011479196
28	0xbd498fb0	-0.049209297
29	0x3ddc8dfb	0.10769268
30	0x3ca77148	0.020439759
31	0xbd728f70	-0.059218824
32	0x3d2f8cea	0.042858995
33	0xbb4e5630	-0.0031484477
34	0xbcf749e8	-0.030186608
35	0x3cd60d06	0.026129257
36	0x3db540bb	0.08850237
37	0xbcf3b8dd	-0.029751236
38	0xbcd81c67	-0.02638073
39	0xbd2472ff	-0.04014873
40	0x3cd6d41f	0.026224194
41	0x3d7cf8ee	0.061760835
42	0xbcce00f0	-0.025146931
43	0xbcbb4961	-0.022862138
44	0xbcde9cd2	-0.027174387
45	0xbd7f0127	-0.06225696
46	0xbc97198b	-0.018444797
47	0xbd95913a	-0.073030904
48	0xbdbf7253	-0.093479775
49	0x3dbef04e	0.09323178
50	0x3b06aacd	0.0020548583
51	0x3d8ad7bc	0.06779429
52	0x3d9d6029	0.07684357
53	0x3db3a537	0.087717466
54	0xbdd18b7e	-0.10231684
55	0xbd9d3f14	-0.07678047
56	0xbd612cb7	-0.054974284
57	0x3de36a5b	0.1110427
58	0xbd667a71	-0.056269113
59	0x3dd3024d	0.10303173
60	0xbdc4a56c	-0.09601864
61	0xbcf23fdd	-0.029571468
62	0xbdd762f4	-0.10516921
63	0x3cd49b4b	0.025952956
64	0x3cfbb7df	0.030727325
65	0x3c8b7016	0.01702122
66	0x3d669d04	0.056302086
67	0xbd0c2b29	-0.03422085
68	0x3d3722fe	0.044711106
69	0x3d12f640	0.035879374
70	0xbcdd3e02	-0.027007107
71	0x3dc70a05	0.09718708
72	0xbd9b0534	-0.07569352
73	0x3d5ed65f	0.05440366
74	0x3de1c690	0.11024201
75	0x3ce9b912	0.028530631
76	0x3d5614cf	0.05226594
77	0xbd7f53dc	-0.062335834
78	0xbc128d40	-0.008944809
79	0xbddefbaf	-0.108878486
80	0xbd6b1f5c	-0.057402954
81	0x3c16b07a	0.009197349
82	0x3d49f55f	0.04930627
83	0x3db32b44	0.08748487
84	0x3d964f20	0.07339311
85	0x39b2c0af	0.00034094366
86	0x3dd65368	0.10465127
87	0x3d21ba56	0.039484344
88	0x3c43ac57	0.0119429445
89	0xbca0e967	-0.019642545
90	0x3d51ec3b	0.051250678
91	0xbd79ca38	-0.060983866
92	0x3d71f34b	0.059069913
93	0x3dccc5ea	0.099986866
94	0x3d2ba17e	0.041902058
95	0xbd4684c4	-0.04846646
96	0x3d1e6030	0.03866595
97	0xbda7add3	-0.08187451
98	0xbd3f3982	-0.046685703
99	0x3db7268d	0.089429
100	0x3ba16040	0.004924804
101	0x3dd0fe5d	0.10204766
102	0x3d99ea35	0.075153746
103	0xbbc9bd58	-0.0061566047
104	0x3d2b35e9	0.04179946
105	0xbdd884e7	-0.10572224
106	0x3d2ceacb	0.042216104
107	0xbd704020	-0.058654904
108	0xbd3bdc1f	-0.04586422
109	0xbda1f142	-0.079073444
110	0xbd593141	-0.053025488
111	0xbcc8854d	-0.024477625
112	0xbd2da4c8	-0.042393476
113	0x3cdcca19	0.026951836
114	0x3d7e50a8	0.06208864
115	0x3bda8d8d	0.006669706
116	0x3c880f3b	0.016608825
117	0x3d714c94	0.05891092
118	0xbcf6b3c1	-0.03011501
119	0xbdced762	-0.10099675
120	0xbdb41cce	-0.087945566
121	0x3d9b646d	0.07587514
122	0xba05010e	-0.00050737045
123	0x3d452549	0.04813126
124	0xbca29ac1	-0.019849183
125	0x3d0c64a8	0.03427568
126	0xbd7162ed	-0.058932234
127	0xbd4673a2	-0.04845012
128	0x3d93093c	0.07179496
129	0x3d7af295	0.0612665
130	0x3c90a06c	0.01765462
131	0x3d532088	0.051544696
132	0xbd9be081	-0.0761118
133	0xbd23e5b8	-0.040014
134	0x3dd54717	0.1041395
135	0xbde3253a	-0.11091085
136	0x3d5ab712	0.053397246
137	0xbdd81d14	-0.10552421
138	0x3d8bd1c1	0.06827117
139	0x3dc53bc2	0.096305385
140	0x3d9b026a	0.0756882
141	0xbdaf6d64	-0.085657865
142	0x3cce6e5d	0.02519911
143	0x3d22af82	0.03971816
144	0x3db8d4c3	0.09024956
145	0xbd708413	-0.058719706
146	0xbd557121	-0.05210984
147	0xbddc901e	-0.10769676
148	0xbcd09e95	-0.025466243
149	0xbc3b3626	-0.011426484
150	0x3b8ad788	0.004237119
151	0xbd5a029f	-0.053225156
152	0x3db6e27c	0.08929917
153	0x3d6c961f	0.057760354
154	0x3cf1a52f	0.029497711
155	0x3d25de06	0.04049494
156	0x3daee04a	0.085388735
157	0xbc81a158	-0.015824005
158	0xbd8bf461	-0.06833721
159	0xbdc377b5	-0.09544317
160	0x3be21409	0.006899361
161	0x3c718ba9	0.01474277
162	0xbdc298a3	-0.095017694
163	0xbe333f90	-0.17504716
164	0x3d36c34e	0.04461985
165	0xbd9e94d9	-0.07743234
166	0x3d3984d6	0.045292698
167	0x3d76576c	0.060141966
168	0x3a55cd36	0.0008155884
169	0xbda00218	-0.07812899
170	0xbd17a8fd	-0.037026394
171	0x3c82e758	0.015979454
172	0xbd639aba	-0.05556748
173	0xbdf2ad3b	-0.11849447
174	0xbd07d444	-0.033161417
175	0xbd8d0b26	-0.06886892
176	0x3c9bdda9	0.019026594
177	0x3d3d97c2	0.046287306
178	0xbd0b8baf	-0.03406876
179	0x3da4f5ec	0.080547184
180	0xbdc370e7	-0.09543019
181	0xbbb927e5	-0.0056505078
182	0xbdc7673b	-0.097364865
183	0xbc5d76a0	-0.013517052
184	0x3db08cec	0.08620629
185	0x3d7b410c	0.06134133
186	0xbd80a9b0	-0.06282365
187	0x3d393529	0.045216713
188	0x3cb85cc3	0.02250517
189	0xbd7354a9	-0.05940691
190	0xbcbcfbd8	-0.023069307
191	0x3d37b0b4	0.04484625
192	0xbddb5ae8	-0.10710698
193	0x3c74f9ab	0.014952104
194	0xbde5b8b6	-0.112168714
195	0xbd829d63	-0.063776754
196	0x3d5eea4d	0.054422665
197	0x3cee26d6	0.029071253
198	0x3da6ec17	0.08150499
199	0xbd2ddd8e	-0.04244762
200	0x3c9a1b6b	0.018811902
201	0x3d5a3008	0.053268462
202	0xbdad636a	-0.08466227
203	0xbdb2a17b	-0.08722206
204	0x3d6067c7	0.05478647
205	0xbd3c8796	-0.046027742
206	0x3d21a073	0.039459657
207	0xbd91d6a2	-0.07121016
208	0xbd89abb9	-0.067222066
209	0xbc732313	-0.014839905
210	0xbdf4e225	-0.11957196
211	0x3d73f5f2	0.059560724
212	0x3c90ebec	0.017690621
213	0x3d47ff59	0.048827503
214	0x3d44b7ef	0.048026975
215	0x3d2cbc6d	0.042171884
216	0xbd906851	-0.07051147
217	0x3d42fc17	0.047603693
218	0x3dcbad9a	0.09945221
219	0x3d7df1a2	0.061998017
220	0xbdbd5493	-0.09244647
221	0x3d8630bd	0.06552265
222	0x3ddb6463	0.107125066
223	0x3d95ddc9	0.07317693
224	0xbd828a34	-0.063740164
225	0xbb8249fa	-0.003976104
226	0x3d956786	0.07295136
227	0x3cc0fa98	0.023556992
228	0xbd5fde71	-0.054655496
229	0xbdb90e20	-0.09035897
230	0x3db9d216	0.09073274
231	0x3ec66403	0.38748178
232	0xbdb9d537	-0.09073871
233	0x3dafce2f	0.08584248
234	0x3d384c40	0.044994593
235	0xbbc184cf	-0.0059057246
236	0x3ceb940e	0.028757121
237	0x3d1652e9	0.036700163
238	0x3c897cb6	0.0167831
239	0x3c0047ca	0.007829616
240	0xbbe8cd9b	-0.007104588
241	0x3db48e08	0.08816153
242	0x3db1c270	0.08679664
243	0x3e8e35aa	0.27775317
244	0xbd0cc287	-0.034365203
245	0x3ce00929	0.027348118
246	0xbca86edb	-0.020560673
247	0xbd9bcfbe	-0.07607983
248	0x3df093ff	0.11746978
249	0x3ae47763	0.00174306
250	0xbc93f63c	-0.01806175
251	0x3dda1619	0.10648746
252	0xbd101450	-0.03517562
253	0x3d3f81bc	0.046754584
254	0x3e0c998d	0.1373045
255	0x3de7afee	0.11312853

fc1.bias f4 [128]
0	0xbd790fd4	-0.06080611
1	0x3bf4481d	0.0074548856
2	0x3cbbfda6	0.022948097
3	0xbd9c52e4	-0.07632998
4	0x3d1eef3a	0.038802363
5	0xbdb61939	-0.088915296
6	0x3cf6b5af	0.03011593
7	0x3dc131a7	0.094332986
8	0x3cf0f43a	0.029413331
9	0xbdc585aa	-0.09644635
10	0x3d99741f	0.074928515
11	0xbd85b673	-0.0652894
12	0x3d52ca61	0.051462535
13	0xbc8cb960	-0.017178237
14	0x3daa8deb	0.0832785
15	0xbd4ab032	-0.04948444
16	0xbd8ff765	-0.07029609
17	0xbc816c6e	-0.015798774
18	0x3dbdfad4	0.09276357
19	0x3dbc6246	0.09198432
20	0xbdd211da	-0.10257311
21	0x3d0813d5	0.03322204
22	0xbbf8a43f	-0.007587939
23	0x3db55b27	0.088552766
24	0x3dcd6168	0.100283444
25	0xbdc0fafd	-0.09422872
26	0x3dbf2fcf	0.09335291
27	0xbcc556bb	-0.024089208
28	0xbd357e59	-0.044309948
29	0xbd75d50b	-0.060017627
30	0x3d5c4ad2	0.05378229
31	0x3cc88a47	0.024479998
32	0xbbcf91a1	-0.006334499
33	0xbd98ae95	-0.07455174
34	0x3d8c809d	0.068604685
35	0xbcaf6c60	-0.021413982
36	0x3b88f14c	0.0041791555
37	0x3d8be551	0.06830848
38	0xbb5d2df0	-0.0033749305
39	0x3d73b835	0.059501845
40	0xbd94e62c	-0.07270464
41	0x3cae9ed4	0.02131597
42	0x3c1f683d	0.009729442
43	0x3ca4a9a7	0.020100428
44	0xbde31b1d	-0.11089156
45	0x3d9f127e	0.07767199
46	0xbd534342	-0.051577814
47	0x3d88edf7	0.06686013
48	0xbd660774	-0.05615945
49	0xbddbaf75	-0.10726825
50	0xbdfd380c	-0.12364206
51	0x3c215eb6	0.009849241
52	0x3d6c44c6	0.057682775
53	0x3d299778	0.041404217
54	0x3c81e6eb	0.01585718
55	0x3dceb25a	0.100926116
56	0xbd43eb45	-0.047831792
57	0xbd00c93e	-0.03144192
58	0xbdfc30af	-0.12313973
59	0x3cd37de7	0.02581687
60	0x3d7670b7	0.060166087
61	0xbd30d30f	-0.04317003
62	0xbda2fcba	-0.0795836
63	0x3dd14c62	0.10219647
64	0xbd175ca2	-0.036953576
65	0xbd85d472	-0.06534661
66	0xbd661767	-0.056174662
67	0xbc11fb84	-0.008910064
68	0x3cd8efc3	0.026481515
69	0xbdcb95e0	-0.09940696
70	0x3d50dc90	0.050991595
71	0xbcb0db42	-0.021588925
72	0x3d0892bd	0.033343066
73	0xbbf6f155	-0.0075360932
74	0x3dc0435d	0.093878485
75	0x3da68e9e	0.08132671
76	0x3993f6fe	0.00028222048
77	0xbdec4cb6	-0.11538069
78	0x3d3f7300	0.046740532
79	0x3dd209b6	0.102557585
80	0x3cd5dea0	0.026107132
81	0xbdbc5f4b	-0.09197863
82	0x3d897fd5	0.06713835
83	0xbd37b7ce	-0.044853024
84	0xbd8a6155	-0.06756846
85	0x3c15de10	0.009147182
86	0x3deab241	0.114597805
87	0x3d047588	0.03233865
88	0x3de2e162	0.110781446
89	0xbd32f54d	-0.04369097
90	0xbc42a50b	-0.01188017
91	0xbdac41f9	-0.08411021
92	0xbd410e30	-0.04713267
93	0x3d12a287	0.03579953
94	0x3b71c287	0.003688963
95	0xbd4d0d09	-0.05006126
96	0x3d4112cb	0.047137063
97	0x3d8224d3	0.0635468
98	0x3ce7805b	0.028259447
99	0x3d682340	0.056674242
100	0xbd43715d	-0.047715534
101	0x3c983785	0.018581161
102	0xbdb5d21e	-0.08877967
103	0xbc4d2fdd	-0.0125236185
104	0x3d54be75	0.051939446
105	0x39b152a4	0.00033821643
106	0x3db2ea9f	0.08736157
107	0xbb035293	-0.0020038232
108	0xbc9165ec	-0.017748795
109	0x3d9a6fe1	0.075408705
110	0xbc7e27b5	-0.015512397
111	0x3ca52fd3	0.020164406
112	0x3c8a6e28	0.01689823
113	0x3d878c36	0.0661854
114	0x3cc752cf	0.024331478
115	0xbdc3cc14	-0.09560409
116	0xbd7fee01	-0.062482838
117	0x3d59746c	0.053089544
118	0xbc7f96b5	-0.015599896
119	0xbd73914d	-0.05946474
120	0xbd2b649d	-0.041844
121	0xbdc84f1a	-0.097807124
122	0x3da3df62	0.08001591
123	0xbc35d5cc	-0.011098336
124	0xbd809697	-0.06278723
125	0xbd0c1901	-0.034203533
126	0x3d65f102	0.056138046
127	0x3ddf0a67	0.10890656

fc2.weight f4 [128, 128]
0	0xbd0f8fc6	-0.035049222
1	0x3d92af31	0.07162321
2	0x3c5f98a2	0.01364723
3	0x3da418e5	0.08012561
4	0xbc8f0df2	-0.017462704
5	0x3c682502	0.01416898
6	0xbd9a193c	-0.07524344
7	0xbd2bd552	-0.041951485
8	0xbcfdc794	-0.030978955
9	0x3d9ab985	0.07554916
10	0x3cecfd74	0.02892945
11	0xbd107fed	-0.03527825
12	0x3d2c31e2	0.04203976
13	0xbb7157cf	-0.003682602
14	0x3d94a256	0.072575256
15	0x3ca0d548	0.01963295
16	0xbb3613c5	-0.002778278
17	0xbd82debd	-0.0639014
18	0xbd458cc6	-0.048229955
19	0x3c9e06c2	0.019290332
20	0xbccd15c0	-0.025034785
21	0xbd52429c	-0.051333055
22	0xbc5815d9	-0.013188803
23	0xbd98268a	-0.07429226
24	0x3d76502b	0.060135048
25	0x3d7734c9	0.060353074
26	0x3b472c90	0.0030391552
27	0x39ab5b7d	0.00032683826
28	0xbd058b4c	-0.032603547
29	0xbd19beb7	-0.037535395
30	0x3c8fde0a	0.017561931
31	0x3d57b033	0.05265827
32	0xbd348edf	-0.044081565
33	0xbe306c73	-0.1722887
34	0xbcca9151	-0.024727495
35	0x3c4b8c98	0.012423657
36	0x3d84e6e1	0.06489349
37	0xbd1ae52f	-0.037816223
38	0x3d0416ff	0.032248493
39	0x3cff77d4	0.031185068
40	0x3ce1d5db	0.027567795
41	0xbd8869b2	-0.06660785
42	0x3d9895e0	0.074504614
43	0xbcd53f5c	-0.026031189
44	0xbd8c6598	-0.06855315
45	0xbc03b937	-0.008039764
46	0x3d596f80	0.05308485
47	0xbdb2690b	-0.087114416
48	0xbd3f4ad2	-0.046702214
49	0x3dab4efa	0.08364673
50	0xbd8e1ee5	-0.069394864
51	0x3d38c5e7	0.04511061
52	0x3db1068e	0.08643828
53	0xbd6619d7	-0.056176987
54	0xbdb02c7d	-0.086022355
55	0x3da30cb6	0.07961409
56	0xbd9e009e	-0.077149615
57	0xbca626af	-0.020282118
58	0xbd36318d	-0.04448085
59	0xbd5b2957	-0.05350622
60	0x3b6187fa	0.0034413324
61	0x3d6912e0	0.056902766
62	0xbd4bfb73	-0.049800348
63	0xbd413a82	-0.047174938
64	0xbd18f3b4	-0.03734179
65	0xbd53435f	-0.051577922
66	0x3c81b462	0.015833084
67	0x3c6ab058	0.01432427
68	0x3dc13f7b	0.09435936
69	0x3cf796b0	0.03022322
70	0x3d93331b	0.07187482
71	0x3cf2e487	0.029649986
72	0x3d9cc0a8	0.07653934
73	0x3bbc2dc5	0.005742761
74	0xb94c737b	-0.00019497976
75	0x3d85ae16	0.06527345
76	0xbd0d0e2d	-0.034437347
77	0xbcc17f8e	-0.023620393
78	0xbb8a090b	-0.004212504
79	0xbd34d53f	-0.04414868
80	0x3d3f1dc2	0.04665924
81	0xbd9e1c98	-0.077202976
82	0xbcbc690b	-0.022999307
83	0x3d892e0b	0.06698235
84	0x3d1ae9a4	0.037820473
85	0xbcc11236	-0.023568254
86	0xbc433ff9	-0.011917108
87	0xbd90523c	-0.07046935
88	0xbd357daa	-0.044309296
89	0x3ae77ee3	0.0017661717
90	0xbd594a6c	-0.05304949
91	0xbb1410cc	-0.002259302
92	0xbc406d14	-0.011744756
93	0xbd8f8a52	-0.070088044
94	0x3d94ca0b	0.07265099
95	0xbd3d2235	-0.0461752
96	0xbda080af	-0.078370444
97	0x3d81da67	0.06340485
98	0x3d4c6b39	0.049906943
99	0x3d843738	0.06455845
100	0x3d842d4f	0.064539544
101	0xbd9891fc	-0.07449719
102	0x3bc13f6a	0.005897452
103	0x3c843484	0.016138323
104	0xbd965209	-0.07339866
105	0x3b34a0ff	0.0027561781
106	0x3c2e5aaa	0.010641733
107	0xbdc7ac4b	-0.09749659
108	0xbd905116	-0.07046716
109	0xbdca4de2	-0.09878136
110	0xbd17452b	-0.036931198
111	0x3d7b8e52	0.061415024
112	0x3b4b3742	0.0031008278
113	0xbd17f052	-0.03709442
114	0x3cd1e331	0.025621029
115	0x3dafc924	0.085832864
116	0xbc7249e0	-0.014788121
117	0xbbf7d7e3	-0.0075635775
118	0xbbe6faa1	-0.0070489203
119	0x3d4314c6	0.047627233
120	0xbbfc6727	-0.0077027264
121	0x3cb24adc	0.021764211
122	0x3d84aad4	0.064778954
123	0x3bae3de9	0.005317439
124	0xbd758960	-0.059945464
125	0x3b5e7a7b	0.0033947516
126	0x3cc32049	0.023819106
127	0x3c82f8b4	0.015987732
128	0xbcc05219	-0.023476647
129	0xbc04d62e	-0.008107705
130	0x3d83f12c	0.06442484
131	0x3d8a966a	0.067669705
132	0xbcdac3f6	-0.02670477
133	0xbc95bb4f	-0.018277792
134	0xbd7fd87c	-0.062462315
135	0xbc57545d	-0.013142672
136	0x3aa34d36	0.0012458924
137	0x3abb791b	0.001430306
138	0x3d8831f3	0.06650152
139	0xba9475ee	-0.001132665
140	0xbd10abbd	-0.035320032
141	0x3d8b5ebf	0.06805181
142	0xbd65bcf4	-0.056088403
143	0x3da89246	0.082310244
144	0xbcdd97fe	-0.027050015
145	0x3b0892ca	0.0020839446
146	0x3d7f9237	0.0623953
147	0xbc239d98	-0.009986304
148	0x3d6c654d	0.057713795
149	0x3d7dac6d	0.061932016
150	0x3d84bec0	0.06481695
151	0x3da6ed60	0.081507444
152	0x3d19065b	0.037359577
153	0xb93f6204	-0.00018251693
154	0x3c21eb00	0.0098826885
155	0x3cd41058	0.0258867
156	0x3da954ce	0.08268128
157	0xbdb90246	-0.09033637
158	0xbd881f4c	-0.066465944
159	0x3d4c12d9	0.049822662
160	0x3bfd4c85	0.007730069
161	0x3ca802a8	0.02050908
162	0xbd101ec7	-0.0351856
163	0xbcac8d40	-0.021063447
164	0xbdb315c4	-0.08744386
165	0xbd5d88a8	-0.054085404
166	0x3d9c6059	0.07635564
167	0xbd3081ad	-0.04309242
168	0x3da8f6d2	0.08250202
169	0x3db33047	0.087494425
170	0x3db0362d	0.08604083
171	0xbd9d3759	-0.07676572
172	0x3cf72407	0.030168546
173	0x3d11b60f	0.035574015
174	0xbda98804	-0.08277896
175	0x3d371e74	0.044706777
176	0x3d530b45	0.05152442
177	0x3d2984c1	0.04138637
178	0xbd239fb4	-0.039947227
179	0xbd8437dc	-0.06455967
180	0x3d9dc3f6	0.07703392
181	0xbd49120f	-0.049089488
182	0x3d353e57	0.044248905
183	0xbd5259a7	-0.05135503
184	0xbda97aa4	-0.08275345
185	0xbd8c8cff	-0.0686283
186	0xbcdd4473	-0.027010178
187	0xbc5412b0	-0.012943909
188	0x3cf8faa6	0.030392956
189	0x3cefc3f0	0.029268235
190	0x3da52d32	0.08065261
191	0xbd20092e	-0.039071254
192	0x3d01eca8	0.031719834
193	0x3d216f05	0.039412517
194	0xbdac972c	-0.08427271
195	0x3d006cb8	0.031353682
196	0xbcb64770	-0.02225086
197	0xbd20ffe8	-0.03930655
198	0x3caffe8c	0.021483682
199	0x3d8456c0	0.06461859
200	0xbcbfa4d6	-0.02339403
201	0xbd95d615	-0.073162235
202	0x3d0aa496	0.033848368
203	0x3ca58344	0.020204194
204	0xbc8107da	-0.015750814
205	0xbd8a8bf5	-0.06764976
206	0x3c694247	0.014236993
207	0x3d553459	0.052051876
208	0x3d820d6f	0.063502185
209	0xbd8c16f2	-0.06840314
210	0xbd1d84c2	-0.038456686
211	0x3c367349	0.011135885
212	0x3da8e9af	0.082476966
213	0x3d4da82d	0.050209213
214	0xbcca7495	-0.024713794
215	0xbd98da89	-0.07463557
216	0x3d04a6d9	0.03238568
217	0xbd94c4e0	-0.072641134
218	0x3d09c9c7	0.033639695
219	0xbd698ce2	-0.057019122
220	0x3db0e21d	0.08636878
221	0xbd79021e	-0.060793035
222	0xbd8d95da	-0.069133475
223	0xbda6e993	-0.081500195
224	0x3d6d3d50	0.0579198
225	0x3ba492b6	0.005022372
226	0xbcd8c25c	-0.026459865
227	0xbd8eeb02	-0.06978418
228	0x3d86154e	0.06547032
229	0x3d9a088e	0.07521163
230	0x3d5b4877	0.053535905
231	0xbc8dda43	-0.01731599
232	0x3d2f35fe	0.0427761
233	0xbdb7a284	-0.08966544
234	0xbd2538cb	-0.040337365
235	0xbd85abd3	-0.065269135
236	0xbd91c507	-0.07117658
237	0xbd5b2b1d	-0.053507913
238	0x3d922d4d	0.07137547
239	0x3d5e135d	0.054217685
240	0x3d47b139	0.048752997
241	0x3d0dfc6d	0.03466456
242	0x3d18a0f1	0.03726286
243	0xba32a7aa	-0.0006815145
244	0x3cd07aec	0.025449239
245	0xba69a3c0	-0.0008912645
246	0x3d7aa97f	0.0611968
247	0x3d35243d	0.044224013
248	0x3d81cf14	0.06338325
249	0x3ce2da86	0.02769209
250	0xbc5dcbdc	-0.013537373
251	0xbda01c56	-0.07817905
252	0x3da0d989	0.078539915
253	0x3cd143b1	0.025544973
254	0x3ba88035	0.0051422366
255	0xbd51125c	-0.0510429

fc2.bias f4 [128]
0	0x3d70a988	0.058755428
1	0xbd0d1484	-0.034443393
2	0xbd84a1a5	-0.06476144
3	0xbce2e70c	-0.027698062
4	0x3d2924ca	0.04129485
5	0xbd10e182	-0.03537131
6	0x3d81567c	0.06315324
7	0xbc4251ac	-0.011860292
8	0xbd3d097b	-0.04615162
9	0xbcc7f85c	-0.02441042
10	0x3d5c46f6	0.05377861
11	0x3cad73f0	0.021173447
12	0xbda49cb8	-0.08037704
13	0xbd9e604c	-0.07733211
14	0xbdb09815	-0.08622757
15	0x3dab744e	0.08371793
16	0x3d50e332	0.05099792
17	0xbd9591ca	-0.07303198
18	0xbc1088ad	-0.008821649
19	0xbd33282f	-0.043739494
20	0xbd5ecf13	-0.0543967
21	0xbd74f451	-0.05980331
22	0x3c9974aa	0.018732388
23	0x3db0a56d	0.086253025
24	0xbda7879c	-0.08180162
25	0x3da1e01c	0.079040736
26	0xbc8069e7	-0.015675498
27	0xbd949024	-0.07254055
28	0x3d7bc210	0.06146437
29	0x3b10b54a	0.0022080713
30	0x3db49a16	0.08818452
31	0xbdb10af6	-0.08644669
32	0xbda72977	-0.08162206
33	0xbcdde72b	-0.027087769
34	0x3dced51d	0.10099242
35	0xbd8bfa26	-0.068348214
36	0x3db3a11b	0.08770963
37	0x3d947b71	0.07250107
38	0x3cb2d186	0.021828424
39	0xbc5d5215	-0.013508339
40	0x3b55d9f9	0.0032631143
41	0x3da64e89	0.08120448
42	0x3df181e6	0.11792354
43	0x3c0500d5	0.008117874
44	0xbda250be	-0.079255566
45	0x3d9377b1	0.07200564
46	0xbd718aee	-0.058970384
47	0x3d4863ec	0.048923418
48	0xbd61d1dc	-0.055131778
49	0xbd21805b	-0.03942905
50	0x3da3796f	0.07982146
51	0xbb40420a	-0.0029336237
52	0xbdaab2a1	-0.08334852
53	0xbb64c7cd	-0.003490913
54	0xbd95af6f	-0.07308852
55	0x3c41d19d	0.011829761
56	0xbd5f5fc5	-0.054534692
57	0xbd2a803e	-0.041626208
58	0x3d89be8e	0.067257985
59	0x3dc5df39	0.09661717
60	0x3c25f888	0.010130055
61	0xbd49bacd	-0.049250413
62	0x3d90f366	0.070776746
63	0xbcc3b0f6	-0.023888092
64	0x3da1331f	0.07871079
65	0x3d604db5	0.054761607
66	0xbbd5ad07	-0.0065208706
67	0xbc84a821	-0.016193451
68	0x3d91453d	0.07093284
69	0xbd40f067	-0.047104266
70	0x3c006ec9	0.007838913
71	0x3a6ac445	0.0008955638
72	0x3d419159	0.047257755
73	0xbd44b4dd	-0.048024047
74	0x3d9d1092	0.07669176
75	0x3cdf15ed	0.027232135
76	0xbd094cbb	-0.03352044
77	0xbcff3ff6	-0.031158429
78	0xbd2e5b5c	-0.042567596
79	0x3d7e5c7c	0.06209992
80	0x3cb1c273	0.021699166
81	0xbd7c26af	-0.06156033
82	0xbd88ad91	-0.0667373
83	0x3ba2d39c	0.0049690735
84	0xbcf74f6b	-0.030189237
85	0xbce36911	-0.02776006
86	0x3cf8456d	0.030306542
87	0x3d6c3316	0.057665907
88	0xbd820616	-0.06348817
89	0xbc15856b	-0.009126048
90	0xbd83f9b6	-0.06444113
91	0xbd7faca5	-0.062420506
92	0x3d03aae5	0.0321454
93	0xbd0e0d68	-0.034680754
94	0xbbdd3e4c	-0.006751811
95	0xba08451d	-0.0005198287
96	0xbce816de	-0.028331216
97	0xbca23a6b	-0.019803246
98	0xbcab8e30	-0.020941824
99	0x3d272648	0.040807992
100	0x3d4fe170	0.050752103
101	0x3d188040	0.037231684
102	0x3d13cb35	0.036082465
103	0xbc10f661	-0.008847804
104	0xbb87e387	-0.0041469964
105	0x3d0e9228	0.034807354
106	0x3d829d08	0.063776076
107	0x3d67f8af	0.056633648
108	0x3b6ed102	0.0036440496
109	0xbd5354e8	-0.051594645
110	0xbc821dc4	-0.015883334
111	0x3d9650d3	0.07339635
112	0x3d8e37d9	0.06944246
113	0x3d91aa1d	0.07112525
114	0x3d15157b	0.03639744
115	0xbd14571b	-0.036215883
116	0x3d37d01c	0.044876203
117	0x3ceb2c0f	0.028707532
118	0xbd9ee0fa	-0.077577546
119	0xbda625a4	-0.08112648
120	0x3d9fb8e9	0.07798941
121	0x3c9f1f49	0.019424098
122	0xbb36c34f	-0.002788741
123	0x3da017d7	0.07817047
124	0xbdb1bbb5	-0.086783804
125	0x3d55e6d1	0.052222077
126	0xbbcad44a	-0.0061898576
127	0xbcf4a8f4	-0.02986572

fc3.weight f4 [20, 128]
0	0x3d8024c0	0.062570095
1	0x3c6b8485	0.014374857
2	0xbc848827	-0.016178204
3	0x3dad7d29	0.08471138
4	0xbcacb8ef	-0.021084277
5	0x3bc7ecd4	0.00610123
6	0xbd63fef2	-0.055663057
7	0x3cc58041	0.024109008
8	0x3d6c481f	0.057685968
9	0x3d8e87e3	0.06959512
10	0xbd56cdf5	-0.05244251
11	0x3d669738	0.056296557
12	0xbd96bbfe	-0.073600754
13	0x3dafb1a4	0.08578804
14	0x3da7611b	0.08172818
15	0xbc11c4b8	-0.008896999
16	0x3c2a553e	0.0103963
17	0x3d99d36c	0.07511029
18	0xbced9ad9	-0.029004501
19	0x3b2787cb	0.0025563117
20	0xbd935ada	-0.07195063
21	0x3bcfb767	0.006339002
22	0xbcb926d3	-0.02260152
23	0xbd145f94	-0.036223963
24	0x3db1398a	0.08653553
25	0xbd69cbbd	-0.057079066
26	0xbd7d2dc8	-0.06181124
27	0xbc3d9336	-0.011570742
28	0x3d1cc20e	0.038271002
29	0x3d85440a	0.06507118
30	0xbce3e668	-0.027819827
31	0xbd0a7c2e	-0.033809833
32	0xbc1b7b16	-0.009489795
33	0xbd2c1c30	-0.04201907
34	0xbd9f8198	-0.0778839
35	0x3ceede49	0.029158728
36	0x3d56ce5e	0.0524429
37	0xbd9e7fde	-0.077392325
38	0xbd949f22	-0.07256915
39	0x3cd0f14a	0.02550568
40	0xbdaedfed	-0.08538804
41	0x3bbff14b	0.005857622
42	0x3c98017a	0.018555392
43	0xbc91a08c	-0.01777675
44	0xbd647681	-0.055777077
45	0xbd02f1ef	-0.031969007
46	0x3c4bd60d	0.01244117
47	0x3a525b21	0.00080244435
48	0xbd9d18ff	-0.07670783
49	0x3c1344a3	0.008988532
50	0xbc7fdaba	-0.015616113
51	0x3cdeadd2	0.027182493
52	0x3bd1938d	0.0063957633
53	0xb9863651	-0.0002559894
54	0x3d4bfe96	0.04980334
55	0xbd84ffba	-0.064940885
56	0xbd93debf	-0.0722022
57	0xbcba691c	-0.022755198
58	0xbd35ef6f	-0.044417795
59	0xbd00bfe5	-0.031433005
60	0xbd7e09de	-0.06202113
61	0x3d0740d2	0.0330208
62	0xbdac1437	-0.08402293
63	0x3cddf128	0.027092531
64	0xb9527f31	-0.00020074543
65	0xbcd1169d	-0.025523478
66	0x3d987792	0.07444681
67	0x3d6916d7	0.056906547
68	0x3af249fe	0.0018485186
69	0xbd8eb4f5	-0.069681086
70	0xbd8ed271	-0.06973732
71	0x3d40b50d	0.047047663
72	0xbb2ef370	-0.0026695393
73	0xbda3ddd9	-0.080012985
74	0x3d890e1d	0.06692145
75	0x3d038d0e	0.032116942
76	0x3c3b4c8e	0.011431826
77	0xbc7fcef8	-0.01561331
78	0xbd521c4f	-0.05129653
79	0x3d7496f2	0.059714265
80	0x3ce8c0ba	0.028412212
81	0x3d8f3bb2	0.06993808
82	0xbda65eba	-0.081235364
83	0x3da86848	0.08223015
84	0xbd892e6d	-0.06698308
85	0xbd1314b5	-0.03590842
86	0x3d8a400c	0.06750497
87	0xbd944bc6	-0.07241015
88	0x3cf6dcfc	0.03013467
89	0x3d9ed330	0.077551246
90	0xbd2b3aaa	-0.041803993
91	0x3d817e53	0.063229226
92	0x3d34f68b	0.044180434
93	0x3da83c4d	0.082146265
94	0xbd42dda2	-0.047574647
95	0x3d8cb843	0.06871083
96	0x3d856aad	0.065144874
97	0xbd8bce0f	-0.06826412
98	0x3da1e8f2	0.07905759
99	0x3d311ade	0.043238513
100	0xbd0c3ccb	-0.034237664
101	0x3db25a96	0.08708684
102	0x3c0b5e9e	0.008506445
103	0xbd25e289	-0.040499244
104	0x3dab5da5	0.08367471
105	0x3d6c3059	0.057663295
106	0xbd908545	-0.07056669
107	0x3c0e5969	0.008688309
108	0x3d93893e	0.07203911
109	0xbcef0aad	-0.029179895
110	0xbd8bbe52	-0.0682341
111	0xbd5cac16	-0.05387505
112	0x3d8bbe60	0.068234205
113	0x3d50d9d3	0.050988983
114	0x3cd5b8d4	0.02608911
115	0xbcb0855c	-0.021547966
116	0xbd025eab	-0.031828564
117	0x3d8d97e2	0.06913735
118	0xbbd79730	-0.0065793023
119	0xbda4b9b6	-0.08043234
120	0x3db140da	0.086549476
121	0xb99dd6e9	-0.00030105494
122	0xbc90898d	-0.017643714
123	0x3d1ed3a8	0.03877607
124	0x3bb361b9	0.005474296
125	0x3d98c324	0.07459095
126	0x3d4fc9eb	0.050729673
127	0xbcda63f9	-0.026658999
128	0x3d3ac6bf	0.045599695
129	0xbd852a6f	-0.06502234
130	0x3d12a603	0.035802852
131	0x3d0f50e3	0.03498925
132	0x3d6c0002	0.057617195
133	0x3bdc032d	0.006714246
134	0xbd08fedc	-0.033446178
135	0xbda26b11	-0.079305775
136	0x3d07dfe0	0.03317249
137	0xbd8fc0ae	-0.070191726
138	0xbd21bcae	-0.03948658
139	0x3d8f8d5b	0.07009383
140	0x3cfc8b86	0.030828249
141	0xbd61ce60	-0.055128455
142	0x3d978fc1	0.07400466
143	0xbd430d10	-0.04761988
144	0xbc198f6d	-0.009372574
145	0x3da81f7b	0.082091294
146	0x3d494bad	0.049144436
147	0xbd9c4209	-0.07629783
148	0xbd876cb0	-0.06612527
149	0x3d2a98d9	0.041649673
150	0x3c5bb214	0.013409156
151	0xbd5a94a4	-0.05336441
152	0x3c415cec	0.011801939
153	0x3d83dc15	0.06438462
154	0x3c4f34b8	0.0126468465
155	0xbc2f8eb1	-0.010715173
156	0xbd603772	-0.054740377
157	0xbda46399	-0.08026809
158	0x3caa07ba	0.020755637
159	0x3d72ba9c	0.059259996
160	0x3d6894c1	0.056782488
161	0xbda8e17a	-0.08246131
162	0x3c058e1d	0.008151558
163	0x3ca908f2	0.020634148
164	0x3d58db98	0.052943796
165	0x3da489e0	0.0803411
166	0xbd918d2e	-0.07107006
167	0x3da0ba8f	0.07848083
168	0x3d30749f	0.04307997
169	0x3d32754c	0.043568894
170	0xbcbe0fcc	-0.023200892
171	0xbd9660a9	-0.07342655
172	0xbc7666e0	-0.015039176
173	0x3d5ee82e	0.054420643
174	0x3ce71121	0.02820641
175	0xbd44d3c7	-0.04805353
176	0x3d2522cc	0.040316388
177	0xbd9ee2fe	-0.07758139
178	0xbcef78e0	-0.029232442
179	0xbd673668	-0.05644837
180	0x3ccef755	0.025264421
181	0xbd218c28	-0.039440304
182	0x3c17ca2b	0.009264509
183	0x3d615102	0.055008896
184	0xbc0534fa	-0.008130306
185	0x3d4d4731	0.05011672
186	0xbd3318cb	-0.043724816
187	0x3d8e5ffd	0.06951902
188	0x3d661a34	0.056177333
189	0x3d02ddb7	0.031949725
190	0xbd768a8d	-0.060190726
191	0x3d5e0aa5	0.05420937
192	0x3ca314ff	0.019907473
193	0xbd6600c2	-0.056153066
194	0xbda36ed3	-0.079801224
195	0xbc91c96d	-0.017796243
196	0x3d74f98b	0.059808295
197	0xbd6a39df	-0.057184096
198	0x3d51f6b6	0.051260673
199	0x3c8609e7	0.016362144
200	0x3d06cdb2	0.03291101
201	0xbd968eb2	-0.07351436
202	0xbbc87f33	-0.006118679
203	0xbd947ac7	-0.072499804
204	0xbdb0d190	-0.08633721
205	0x3d1bf077	0.038071122
206	0x3da18a13	0.07887664
207	0x3d8c17c0	0.068404675
208	0xbd8cfaf9	-0.06883807
209	0x3d427449	0.04747418
210	0xbd30e2da	-0.043185093
211	0xbd78c080	-0.060730457
212	0xbd0c7018	-0.03428659
213	0x3daacebf	0.08340215
214	0xbd679a98	-0.056543916
215	0xbd93a7f6	-0.072097704
216	0x3d1a6227	0.03769126
217	0x3d8598a2	0.06523253
218	0xbd9b077c	-0.07569787
219	0xbcf0361d	-0.029322678
220	0xbdae6690	-0.08515656
221	0x3d47f888	0.048821002
222	0x3d68c04c	0.056824014
223	0x3d8bca2d	0.06825671
224	0x3ca0cf94	0.019630231
225	0x3ae7bef7	0.0017680813
226	0xbd13e0b5	-0.03610297
227	0xbc45f7ef	-0.012083038
228	0xbd85ddf9	-0.065364785
229	0x3d83560c	0.064128965
230	0x3d84b1fa	0.06479259
231	0x3da05350	0.078283906
232	0xbdad2833	-0.08454933
233	0xbd55506e	-0.052078657
234	0xbd4690e1	-0.04847801
235	0x3d8c5411	0.06851972
236	0x3d7846a0	0.06061423
237	0xbc892084	-0.016739137
238	0xbccfda73	-0.02537272
239	0x3d130203	0.03589059
240	0xbd8b535b	-0.06803008
241	0x3d8b8147	0.06811767
242	0xbd201c13	-0.039089274
243	0xbd0d38e1	-0.034478072
244	0x3d1813f6	0.03712841
245	0x3da6386e	0.08116232
246	0x3cdb9a80	0.02680707
247	0x3ca3aa4f	0.01997867
248	0xbd9f9211	-0.07791532
249	0x3da580ec	0.080812305
250	0xbdb3d05c	-0.08779976
251	0xbd84a824	-0.06477383
252	0xbd14f5cb	-0.03636722
253	0x3d4bbcf8	0.04974076
254	0xbda99709	-0.08280761
255	0xbd588c1f	-0.052868005

fc3.bias f4 [20]
0	0xbdad505a	-0.084625915
1	0xbdb32663	-0.08747556
2	0xbd905d32	-0.070490256
3	0x3b900749	0.0043953997
4	0xbd69adcf	-0.057050522
5	0xbbebe1ae	-0.007198534
6	0xbcd4ec9b	-0.025991729
7	0x3d56342d	0.052295852
8	0x3d7d7fce	0.061889462
9	0x3ddcba8b	0.10777768
10	0xbda11679	-0.078656144
11	0x3b00ffaa	0.0019683638
12	0xbda3dc0c	-0.08000955
13	0x3d4d0059	0.05004916
14	0x3d2f9063	0.042862307
15	0x3d853c4e	0.06505643
16	0xbdac5a61	-0.08415676
17	0x3d9dead3	0.07710805
18	0xbcbdfd96	-0.023192208
19	0xbdb258f5	-0.087083735
