target_network.pth (torch, 120462 bytes, 6 tensors)

fc1.weight f4 [128, 80]
00000000: 9819 a43c 2b9f de3c 0d4b d8bd 0b16 7f3d
00000010: 52aa b0bd d8a2 92bd 91ce 4cbd e28d 31bd
00000020: 678e 763d d39a bdbd 745c d13d 81b3 813d
00000030: 207b 6e3d 057c c73c 3790 ef3c 5841 6abd
00000040: c871 343d 2d70 c8bd 79d4 cdbd ff10 563d
00000050: 763c b9bd acc5 c03d ce51 87bd b603 913d
00000060: 55d4 313b a2e0 853d 6d19 8d3d 3d13 3cbc
00000070: b08f 49bd fb8d dc3d 4871 a73c 708f 72bd
00000080: ea8c 2f3d 3056 4ebb e949 f7bc 060d d63c
00000090: bb40 b53d ddb8 f3bc 671c d8bc ff72 24bd
000000a0: 1fd4 d63c eef8 7c3d f000 cebc 6149 bbbc
000000b0: d29c debc 2701 7fbd 8b19 97bc 3a91 95bd
000000c0: 5372 bfbd 4ef0 be3d cdaa 063b bcd7 8a3d
000000d0: 2960 9d3d 37a5 b33d 7e8b d1bd 143f 9dbd
000000e0: b72c 61bd 5b6a e33d 717a 66bd 4d02 d33d
000000f0: 6ca5 c4bd dd3f f2bc f462 d7bd 4b9b d43c
00000100: dfb7 fb3c 1670 8b3c 049d 663d 292b 0cbd
00000110: fe22 373d 40f6 123d 023e ddbc 050a c73d
00000120: 3405 9bbd 5fd6 5e3d 90c6 e13d 12b9 e93c
00000130: cf14 563d dc53 7fbd 408d 12bc affb debd
00000140: 5c1f 6bbd 7ab0 163c 5ff5 493d 442b b33d
00000150: 204f 963d afc0 b239 6853 d63d 56ba 213d
00000160: 57ac 433c 67e9 a0bc 3bec 513d 38ca 79bd
00000170: 4bf3 713d eac5 cc3d 7ea1 2b3d c484 46bd
00000180: 3060 1e3d d3ad a7bd 8239 3fbd 8d26 b73d
00000190: 4060 a13b 5dfe d03d 35ea 993d 58bd c9bb
000001a0: e935 2b3d e784 d8bd cbea 2c3d 2040 70bd
000001b0: 1fdc 3bbd 42f1 a1bd 4131 59bd 4d85 c8bc
000001c0: c8a4 2dbd 19ca dc3c a850 7e3d 8d8d da3b
000001d0: 3b0f 883c 944c 713d c1b3 f6bc 62d7 cebd
000001e0: ce1c b4bd 6d64 9b3d 0e01 05ba 4925 453d
000001f0: c19a a2bc a864 0c3d ee62 71bd a273 46bd
00000200: 3c09 933d 96f2 7a3d 6ca0 903c 8820 533d
00000210: 81e0 9bbd b8e5 23bd 1747 d53d 3a25 e3bd
00000220: 12b7 5a3d 141d d8bd c1d1 8b3d c23b c53d
00000230: 6a02 9b3d 646d afbd 5d6e ce3c 82af 223d
00000240: c3d4 b83d 1384 70bd 2171 55bd 1e90 dcbd
00000250: 959e d0bc 2636 3bbc 88d7 8a3b 9f02 5abd
00000260: 7ce2 b63d 1f96 6c3d 2fa5 f13c 06de 253d
00000270: 4ae0 ae3d 58a1 81bc 61f4 8bbd b577 c3bd
00000280: 0914 e23b a98b 713c a398 c2bd 903f 33be
00000290: 4ec3 363d d994 9ebd d684 393d 6c57 763d
000002a0: 37cd 553a 1802 a0bd fda8 17bd 59e7 823c
000002b0: ba9a 63bd 3bad f2bd 44d4 07bd 260b 8dbd
000002c0: a9dd 9b3c c297 3d3d af8b 0bbd ecf5 a43d
000002d0: e770 c3bd e527 b9bb 3b67 c7bd a076 5dbc
000002e0: ec8c b03d 0c41 7b3d b0a9 80bd 2935 393d
000002f0: c35c b83c a954 73bd d8fb bcbc b4b0 373d
00000300: e85a dbbd acf9 743c b6b8 e5bd 639d 82bd
00000310: 4dea 5e3d d726 ee3c 17ec a63d 8edd 2dbd
00000320: 6b1b 9a3c 0830 5a3d 6a63 adbd 7ba1 b2bd
00000330: c767 603d 9687 3cbd 73a0 213d a2d6 91bd
00000340: b9ab 89bd 1323 73bc 25e2 f4bd f2f5 733d
00000350: eceb 903c 59ff 473d efb7 443d 6dbc 2c3d
00000360: 5168 90bd 17fc 423d 9aad cb3d a2f1 7d3d
00000370: 9354 bdbd be30 863d 6364 db3d c9dd 953d
00000380: 348a 82bd fa49 82bb 8667 953d 98fa c03c
00000390: 71de 5fbd 200e b9bd 16d2 b93d 0364 c63e
000003a0: 37d5 b9bd 2fce af3d 404c 383d cf84 c1bb
000003b0: 0e94 eb3c e952 163d b67c 893c ca47 003c
000003c0: abcd e8bb 078e b43d 6fc2 b13d a935 8e3e
000003d0: 89c2 0cbd 2509 e03c da6e a8bc c2cf 9bbd
000003e0: fd93 f03d 4a77 e43a 40f6 93bc 1716 da3d
000003f0: 5214 10bd ba81 3f3d 8c99 0c3e edaf e73d
0.020031735 0.027175507 -0.1056119 0.06227688 -0.08626236 -0.07159966 -0.050001685 -0.0433482
0.0601944 -0.09258046 0.10222712 0.06333066 0.05822289 0.02435113 0.029243572 -0.057191223
0.044053823 -0.09787021 -0.100502916 0.052262302 -0.09044735 0.09412703 -0.066074 0.07080786
0.0027134616 0.06536986 0.06889615 -0.011479196 -0.049209297 0.10769268 0.020439759 -0.059218824
0.042858995 -0.0031484477 -0.03018661 0.026129257 0.08850237 -0.029751236 -0.02638073 -0.04014873
0.026224194 0.061760835 -0.025146931 -0.022862138 -0.027174387 -0.06225696 -0.018444797 -0.073030904
-0.093479775 0.09323178 0.0020548583 0.06779429 0.07684357 0.087717466 -0.10231684 -0.07678047
-0.054974284 0.1110427 -0.056269113 0.10303173 -0.09601864 -0.029571468 -0.10516921 0.025952956
0.030727325 0.01702122 0.056302086 -0.03422085 0.044711106 0.035879374 -0.027007107 0.09718708
-0.07569352 0.05440366 0.11024201 0.028530631 0.05226594 -0.062335834 -0.008944809 -0.108878486
-0.057402954 0.009197349 0.04930627 0.08748487 0.07339311 0.00034094366 0.10465127 0.039484344
0.0119429445 -0.019642545 0.051250678 -0.060983866 0.059069913 0.099986866 0.041902058 -0.04846646
0.03866595 -0.08187451 -0.046685703 0.089429 0.004924804 0.10204766 0.075153746 -0.0061566047
0.04179946 -0.10572224 0.042216104 -0.058654904 -0.04586422 -0.079073444 -0.053025488 -0.024477625
-0.042393476 0.026951836 0.06208864 0.006669706 0.016608825 0.05891092 -0.03011501 -0.10099675
-0.087945566 0.07587514 -0.00050737045 0.04813126 -0.019849183 0.03427568 -0.058932237 -0.04845012
0.07179496 0.061266504 0.01765462 0.051544696 -0.0761118 -0.040014 0.1041395 -0.11091085
0.053397246 -0.10552421 0.06827117 0.096305385 0.0756882 -0.085657865 0.02519911 0.03971816
0.09024956 -0.058719706 -0.05210984 -0.10769676 -0.025466243 -0.011426484 0.004237119 -0.053225156
0.08929917 0.057760354 0.029497711 0.04049494 0.085388735 -0.015824005 -0.06833721 -0.09544317
0.006899361 0.01474277 -0.095017694 -0.17504716 0.04461985 -0.07743234 0.045292698 0.060141966
0.00081558846 -0.07812899 -0.037026394 0.015979456 -0.05556748 -0.11849447 -0.033161417 -0.06886892
0.019026594 0.046287306 -0.03406876 0.080547184 -0.09543019 -0.0056505078 -0.097364865 -0.013517052
0.08620629 0.06134133 -0.06282365 0.045216713 0.02250517 -0.05940691 -0.023069307 0.04484625
-0.10710698 0.014952105 -0.112168714 -0.063776754 0.054422665 0.029071255 0.08150499 -0.04244762
0.018811902 0.053268462 -0.08466227 -0.08722206 0.05478647 -0.046027742 0.039459657 -0.07121016
-0.067222066 -0.014839905 -0.11957196 0.059560724 0.017690621 0.048827503 0.048026975 0.042171884
-0.07051147 0.047603693 0.09945221 0.061998017 -0.09244647 0.065522656 0.107125066 0.07317693
-0.063740164 -0.003976104 0.07295136 0.023556992 -0.054655496 -0.09035897 0.09073274 0.38748178
-0.09073871 0.08584248 0.044994593 -0.0059057246 0.028757121 0.036700163 0.0167831 0.007829616
-0.0071045957 0.08816152 0.086796634 0.27775314 -0.03436521 0.02734811 -0.02056067 -0.07607986
0.117469765 0.001743057 -0.018061757 0.106487446 -0.03517563 0.046754576 0.13730448 0.11312852

fc1.bias f4 [128]
00000000: d40f 79bd 1d48 f43b a6fd bb3c e552 9cbd
00000010: 3aef 1e3d 3919 b6bd afb5 f63c a731 c13d
00000020: 3af4 f03c aa85 c5bd 1f74 993d 73b6 85bd
00000030: 62ca 523d 60b9 8cbc eb8d aa3d 32b0 4abd
00000040: 65f7 8fbd 6c6c 81bc d4fa bd3d 4562 bc3d
00000050: da11 d2bd d513 083d 3fa4 f8bb 275b b53d
00000060: 6861 cd3d fdfa c0bd d62f bf3d bb56 c5bc
00000070: 597e 35bd 0dd5 75bd d24a 5c3d 478a c83c
00000080: a191 cfbb 90ae 98bd 9d80 8c3d 5b6c afbc
00000090: 4cf1 883b 4fe5 8b3d f02d 5dbb 35b8 733d
000000a0: 2ce6 94bd d49e ae3c 3e68 1f3c a7a9 a43c
000000b0: 1b1b e3bd 8112 9f3d 4243 53bd fced 883d
000000c0: 7407 66bd 76af dbbd 0838 fdbd d15e 213c
000000d0: cb44 6c3d 7897 293d 00e7 813c 5ab2 ce3d
000000e0: 45eb 43bd 3ec9 00bd af30 fcbd e77d d33c
000000f0: b870 763d 0fd3 30bd bafc a2bd 624c d13d
00000100: 965c 17bd 72d4 85bd 6d17 66bd 85fb 11bc
00000110: c3ef d83c e095 cbbd 90dc 503d 42db b0bc
00000120: bd92 083d 55f1 f6bb 5d43 c03d 9d8e a63d
00000130: fef6 9339 b64c ecbd 0c73 3f3d ba09 d23d
00000140: a0de d53c 4b5f bcbd da7f 893d cab7 37bd
00000150: 5561 8abd 10de 153c 40b2 ea3d 8875 043d
00000160: 62e1 e23d 4df5 32bd 0ba5 42bc f941 acbd
00000170: 300e 41bd 87a2 123d 87c2 713b 090d 4dbd
00000180: d212 413d d824 823d 5b80 e73c 4023 683d
00000190: 5d71 43bd 8537 983c 1ed2 b5bd dd2f 4dbc
000001a0: 75be 543d d451 b139 a4ea b23d 2052 03bb
000001b0: dd65 91bc e66f 9a3d b627 7ebc e22f a53c
000001c0: 286e 8a3c 368c 873d cc52 c73c 14cc c3bd
000001d0: f3ed 7fbd 6b74 593d ba96 7fbc 4d91 73bd
000001e0: 9d64 2bbd 1a4f c8bd 64df a33d fdd5 35bc
000001f0: 8e96 80bd f618 0cbd 02f1 653d 670a df3d
-0.06080611 0.0074548856 0.022948097 -0.076329984 0.038802363 -0.088915296 0.03011593 0.094332986
0.029413331 -0.09644635 0.074928515 -0.0652894 0.05146254 -0.017178237 0.0832785 -0.04948444
-0.07029609 -0.01579877 0.09276357 0.09198431 -0.10257311 0.03322204 -0.007587939 0.088552766
0.100283444 -0.09422872 0.09335296 -0.024089208 -0.044309948 -0.060017634 0.05378229 0.024479998
-0.006334499 -0.0745517 0.068604685 -0.021413973 0.0041791555 0.068308465 -0.0033749305 0.059501845
-0.07270464 0.02131597 0.009729443 0.020100428 -0.11089154 0.07767201 -0.051577814 0.06686017
-0.05615945 -0.10726826 -0.12364203 0.009849266 0.057682794 0.041404217 0.01585722 0.100926116
-0.047831792 -0.03144192 -0.12313973 0.02581687 0.06016609 -0.04317003 -0.0795836 0.10219647
-0.03695353 -0.06534661 -0.056174684 -0.008910065 0.026481515 -0.09940696 0.050991595 -0.021588925
0.033343066 -0.0075360932 0.093878485 0.0813267 0.00028222048 -0.11538069 0.046740577 0.102557614
0.026107132 -0.09197863 0.06713839 -0.04485301 -0.06756846 0.009147182 0.1145978 0.03233865
0.110781446 -0.04369097 -0.01188017 -0.08411021 -0.04713267 0.03579953 0.003688963 -0.05006126
0.04713709 0.06354684 0.028259447 0.056674242 -0.047715534 0.018581161 -0.08877967 -0.0125236185
0.051939446 0.00033821038 0.087361604 -0.0020037964 -0.017748768 0.07540874 -0.0155123975 0.020164434
0.01689823 0.0661854 0.024331473 -0.09560409 -0.062482785 0.05308954 -0.015599901 -0.05946474
-0.041844 -0.097807124 0.08001593 -0.011098382 -0.06278716 -0.034203492 0.056138046 0.10890656

fc2.weight f4 [128, 128]
00000000: c68f 0fbd 32af 923d a298 5f3c e018 a43d
00000010: f20d 8fbc 0225 683c 3c19 9abd 52d5 2bbd
00000020: 94c7 fdbc 85b9 9a3d 74fd ec3c ed7f 10bd
00000030: d731 2c3d cf57 71bb 56a2 943d 48d5 a03c
00000040: c513 36bb c3de 82bd c68c 45bd ae06 9e3c
00000050: c015 cdbc 9c42 52bd d915 58bc 8a26 98bd
00000060: 2b50 763d ca34 773d e12b 473b 7d5b ab39
00000070: 4c8b 05bd c2be 19bd 0ade 8f3c 33b0 573d
00000080: df8e 34bd 766c 30be 5191 cabc 728c 4b3c
00000090: e1e6 843d 3ae5 1abd ff16 043d d477 ff3c
000000a0: dbd5 e13c b269 88bd e095 983d 5c3f d5bc
000000b0: 9c65 8cbd 61b9 03bc 806f 593d 1169 b2bd
000000c0: d24a 3fbd fa4e ab3d ed1e 8ebd ddc5 383d
000000d0: 8a06 b13d d719 66bd 822c b0bd b60c a33d
000000e0: 9e00 9ebd af26 a6bc 8d31 36bd 5729 5bbd
000000f0: fa87 613b e012 693d 73fb 4bbd 823a 41bd
00000100: bff3 18bd 5f43 53bd 4cb4 813c 58b0 6a3c
00000110: 7c3f c13d b096 f73c 1b33 933d 87e4 f23c
00000120: a8c0 9c3d c52d bc3b 7c73 4cb9 11ae 853d
00000130: 2d0e 0dbd 8f7f c1bc 5a09 8abb 4ad5 34bd
00000140: c21d 3f3d 981c 9ebd 2069 bcbc 062e 893d
00000150: a4e9 1a3d 3712 c1bc 2440 43bc 3c52 90bd
00000160: aa7d 35bd e37e e73a 6c4a 59bd cc10 14bb
00000170: 146d 40bc 528a 8fbd 0bca 943d 3522 3dbd
00000180: b580 a0bd 62da 813d 396b 4c3d 3837 843d
00000190: 4f2d 843d fc91 98bd 6a3f c13b 8434 843c
000001a0: 0952 96bd 5aa0 343b 825a 2e3c 4fac c7bd
000001b0: 1b51 90bd e74d cabd 2b45 17bd 478e 7b3d
000001c0: 4237 4b3b 52f0 17bd 1ce3 d13c 24c9 af3d
000001d0: 074a 72bc 36d8 f7bb defa e6bb c614 433d
000001e0: 2767 fcbb dc4a b23c cfaa 843d a13d ae3b
000001f0: 6589 75bd ab79 5e3b 4920 c33c b4f8 823c
00000200: 1952 c0bc 2ed6 04bc 2cf1 833d 6a96 8a3d
00000210: f6c3 dabc 4fbb 95bc 7cd8 7fbd 5d54 57bc
00000220: 364d a33a 1b79 bb3a f331 883d ee75 94ba
00000230: bdab 10bd bf5e 8b3d f4bc 65bd 4692 a83d
00000240: fe97 ddbc ca92 083b 3892 7f3d 989d 23bc
00000250: 4d65 6c3d 6dac 7d3d c0be 843d 60ed a63d
00000260: 5b06 193d 0462 3fb9 00eb 213c 5810 d43c
00000270: ce54 a93d 4602 b9bd 4d1f 88bd d912 4c3d
00000280: 854c fd3b a802 a83c c71e 10bd 408d acbc
00000290: c415 b3bd a888 5dbd 5960 9c3d ad81 30bd
000002a0: d2f6 a83d 4830 b33d 2d36 b03d 5937 9dbd
000002b0: 0724 f73c 0fb6 113d 0488 a9bd 741e 373d
000002c0: 450b 533d c184 293d b49f 23bd dc37 84bd
000002d0: f6c3 9d3d 0f12 49bd 573e 353d a859 52bd
000002e0: a47a a9bd ff8c 8cbd 7344 ddbc b012 54bc
000002f0: a6fa f83c f0c3 ef3c 322d a53d 2f09 20bd
00000300: a8ec 013d 056f 213d 2c97 acbd b86c 003d
00000310: 7047 b6bc e8ff 20bd 8cfe af3c c056 843d
00000320: d6a4 bfbc 15d6 95bd 97a4 0a3d 4483 a53c
00000330: da07 81bc f58b 8abd 4742 693c 5934 553d
00000340: 6f0d 823d f216 8cbd c284 1dbd 4973 363c
00000350: afe9 a83d 2da8 4d3d 9574 cabc 89da 98bd
00000360: d9a6 043d e0c4 94bd c7c9 093d e28c 69bd
00000370: 1de2 b03d 1e02 79bd da95 8dbd 93e9 a6bd
00000380: 503d 6d3d b692 a43b 5cc2 d8bc 02eb 8ebd
00000390: 4e15 863d 8e08 9a3d 7748 5b3d 43da 8dbc
000003a0: fe35 2f3d 84a2 b7bd cb38 25bd d3ab 85bd
000003b0: 07c5 91bd 1d2b 5bbd 4d2d 923d 5d13 5e3d
000003c0: 39b1 473d 6dfc 0d3d f1a0 183d aaa7 32ba
000003d0: ec7a d03c c0a3 69ba 7fa9 7a3d 3d24 353d
000003e0: 14cf 813d 86da e23c dccb 5dbc 561c a0bd
000003f0: 89d9 a03d b143 d13c 3580 a83b 5c12 51bd
-0.035049222 0.07162322 0.01364723 0.08012557 -0.017462704 0.01416898 -0.07524344 -0.041951485
-0.030978955 0.07554916 0.02892945 -0.03527825 0.04203972 -0.003682602 0.072575256 0.01963295
-0.002778278 -0.06390145 -0.048229955 0.019290294 -0.025034785 -0.051333055 -0.013188803 -0.07429226
0.060135048 0.060353078 0.0030391144 0.00032683826 -0.032603547 -0.037535436 0.017561931 0.05265827
-0.044081565 -0.17228875 -0.024727495 0.0124236215 0.06489349 -0.037816264 0.032248493 0.031185068
0.027567795 -0.06660785 0.074504614 -0.026031189 -0.06855318 -0.008039803 0.05308485 -0.08711446
-0.046702214 0.08364673 -0.069394924 0.045110572 0.08643825 -0.056176987 -0.08602239 0.07961409
-0.077149615 -0.020282118 -0.04448085 -0.05350622 0.0034413324 0.056902766 -0.049800348 -0.047174938
-0.03734183 -0.051577922 0.015833043 0.01432427 0.09435937 0.03022322 0.07187482 0.029649986
0.07653934 0.005742761 -0.00019497977 0.06527341 -0.034437347 -0.023620395 -0.0042125406 -0.04414872
0.04665924 -0.077202976 -0.022999346 0.066982314 0.037820473 -0.023568256 -0.011917148 -0.07046935
-0.044309296 0.0017661717 -0.05304949 -0.002259302 -0.011744756 -0.070088044 0.07265099 -0.0461752
-0.07837049 0.06340481 0.049906943 0.06455845 0.064539544 -0.07449719 0.005897452 0.016138323
-0.07339866 0.0027561397 0.010641696 -0.09749662 -0.0704672 -0.0987814 -0.036931198 0.061414983
0.0031008278 -0.03709442 0.02562099 0.085832864 -0.014788157 -0.007563616 -0.0070489487 0.047627233
-0.0077027264 0.021764211 0.06477892 0.0053174053 -0.059945483 0.0033947031 0.023819106 0.015987732
-0.023476647 -0.008107705 0.06442484 0.067669705 -0.02670477 -0.018277792 -0.062462315 -0.013142672
0.0012458924 0.001430306 0.06650152 -0.001132665 -0.035320032 0.06805181 -0.056088403 0.082310244
-0.027050015 0.0020839446 0.062395304 -0.009986304 0.057713795 0.061932016 0.06481695 0.081507444
0.037359577 -0.00018251693 0.0098826885 0.0258867 0.08268128 -0.09033637 -0.06646595 0.049822662
0.007730069 0.02050908 -0.0351856 -0.021063447 -0.08744386 -0.054085404 0.07635564 -0.04309242
0.08250202 0.08749443 0.08604083 -0.07676572 0.030168546 0.035574015 -0.08277896 0.044706777
0.05152442 0.04138637 -0.039947227 -0.06455967 0.07703392 -0.049089488 0.044248905 -0.051355034
-0.08275345 -0.0686283 -0.027010178 -0.012943909 0.030392956 0.029268235 0.08065261 -0.03907126
0.031719834 0.039412517 -0.08427271 0.031353682 -0.02225086 -0.03930655 0.021483682 0.06461859
-0.02339403 -0.073162235 0.03384837 0.020204194 -0.015750814 -0.06764976 0.014236993 0.052051876
0.063502185 -0.06840314 -0.038456686 0.011135885 0.082476966 0.050209213 -0.024713794 -0.07463557
0.03238568 -0.072641134 0.033639695 -0.057019122 0.08636878 -0.060793035 -0.069133475 -0.081500195
0.0579198 0.005022372 -0.026459865 -0.06978418 0.06547032 0.07521163 0.053535905 -0.01731599
0.0427761 -0.08966544 -0.040337365 -0.065269135 -0.07117658 -0.053507913 0.07137547 0.054217685
0.048752997 0.03466456 0.03726286 -0.0006815145 0.025449239 -0.0008912645 0.0611968 0.044224013
0.06338325 0.02769209 -0.013537373 -0.07817905 0.078539915 0.025544973 0.0051422366 -0.0510429

fc2.bias f4 [128]
00000000: 7da9 703d 8414 0dbd a5a1 84bd 0ce7 e2bc
00000010: ca24 293d 82e1 10bd 7956 813d ac51 42bc
00000020: 7b09 3dbd 5cf8 c7bc f646 5c3d f573 ad3c
00000030: b09c a4bd 4c60 9ebd 1598 b0bd 4e74 ab3d
00000040: 32e3 503d ca91 95bd ad88 10bc 2f28 33bd
00000050: 0ecf 5ebd 51f4 74bd aa74 993c 6ba5 b03d
00000060: 9c87 a7bd 1ce0 a13d e769 80bc 2490 94bd
00000070: 10c2 7b3d 4ab5 103b 169a b43d f60a b1bd
00000080: 7729 a7bd 2be7 ddbc 1ed5 ce3d 26fa 8bbd
00000090: 21a1 b33d 717b 943d 86d1 b23c 1552 5dbc
000000a0: f9d9 553b 8c4e a63d e781 f13d d600 053c
000000b0: bf50 a2bd b177 933d ee8a 71bd eb63 483d
000000c0: cdd1 61bd 5b80 21bd 7279 a33d 0a42 40bb
000000d0: a1b2 aabd cdc7 64bb 6faf 95bd 8fd1 413c
000000e0: b95f 5fbd 3580 2abd 8abe 893d 37df c53d
000000f0: 5df8 253c cdba 49bd 66f3 903d f6b0 c3bc
00000100: 1d33 a13d b54d 603d 07ad d5bb 21a8 84bc
00000110: 4945 913d 67f0 40bd c96e 003c 45c4 6a3a
00000120: 5991 413d ddb4 44bd 9210 9d3d ed15 df3c
00000130: bb4c 09bd f63f ffbc 5c5b 2ebd 785c 7e3d
00000140: 6bc2 b13c af26 7cbd 91ad 88bd 9cd3 a23b
00000150: 6b4f f7bc 1169 e3bc 6e45 f83c 1633 6c3d
00000160: 1606 82bd b085 15bc b6f9 83bd a5ac 7fbd
00000170: deaa 033d 680d 0ebd 4c3e ddbb 1d45 08ba
00000180: de16 e8bc 6b3a a2bc 308e abbc 4826 273d
00000190: 70e1 4f3d 4180 183d 35cb 133d 5bf6 10bc
000001a0: 87e3 87bb 1f92 0e3d 089d 823d bbf8 673d
000001b0: 54d1 6e3b e854 53bd c41d 82bc da50 963d
000001c0: d937 8e3d 1daa 913d 7915 153d 1b57 14bd
000001d0: 1cd0 373d 0c2c eb3c fae0 9ebd 9b25 a6bd
000001e0: e9b8 9f3d 491f 9f3c 4fc3 36bb d317 a03d
000001f0: b5bb b1bd d1e6 553d 4ad4 cabb f4a8 f4bc
0.058755387 -0.034443393 -0.06476144 -0.027698062 0.04129485 -0.03537131 0.063153215 -0.011860292
-0.04615162 -0.02441042 0.05377861 0.021173457 -0.08037698 -0.07733211 -0.08622757 0.08371793
0.05099792 -0.07303198 -0.008821649 -0.043739494 -0.05439668 -0.05980331 0.018732388 0.08625301
-0.08180162 0.079040736 -0.015675498 -0.07254055 0.06146437 0.0022080713 0.08818452 -0.08644669
-0.08162206 -0.027087769 0.10099243 -0.068348214 0.08770967 0.07250107 0.021828424 -0.013508339
0.0032631143 0.081204504 0.11792355 0.008117875 -0.07925557 0.07200564 -0.058970384 0.048923414
-0.055131722 -0.03942905 0.07982148 -0.0029336237 -0.08334852 -0.003490913 -0.07308852 0.011829748
-0.054534648 -0.041626174 0.067257956 0.096617155 0.010130015 -0.049250413 0.070776746 -0.023888092
0.07871077 0.054761607 -0.0065208706 -0.016193451 0.07093293 -0.047104266 0.007838913 0.0008955638
0.047257755 -0.048024047 0.07669176 0.027232135 -0.03352044 -0.031158429 -0.042567596 0.062099904
0.021699151 -0.06156033 -0.0667373 0.0049690735 -0.030189237 -0.02776006 0.030306544 0.057665907
-0.06348817 -0.009126112 -0.06444113 -0.062420506 0.032145374 -0.034680754 -0.006751811 -0.0005198287
-0.028331216 -0.019803246 -0.020941824 0.040807992 0.050752103 0.037231687 0.036082465 -0.008847798
-0.0041469964 0.03480732 0.063776076 0.056633692 0.0036440687 -0.051594645 -0.015883334 0.0733964
0.06944246 0.07112525 0.03639743 -0.036215883 0.044876203 0.028707527 -0.077577546 -0.081126414
0.07798941 0.019424098 -0.002788741 0.07817044 -0.086783804 0.052222077 -0.0061898576 -0.02986572

fc3.weight f4 [20, 128]
00000000: c024 803d 8584 6b3c 2788 84bc 297d ad3d
00000010: efb8 acbc d4ec c73b f2fe 63bd 4180 c53c
00000020: 1f48 6c3d e387 8e3d f5cd 56bd 3897 663d
00000030: febb 96bd a4b1 af3d 1b61 a73d b8c4 11bc
00000040: 3e55 2a3c 6cd3 993d d99a edbc cb87 273b
00000050: da5a 93bd 68b7 cf3b d326 b9bc 945f 14bd
00000060: 8a39 b13d bdcb 69bd c82d 7dbd 3693 3dbc
00000070: 0ec2 1c3d 0b44 853d 68e6 e3bc 2e7c 0abd
00000080: 167b 1bbc 301c 2cbd 9881 9fbd 49de ee3c
00000090: 5ece 563d de7f 9ebd 229f 94bd 4af1 d03c
000000a0: eddf aebd 4bf1 bf3b 7a01 983c 8ca0 91bc
000000b0: 8176 64bd eff1 02bd 0dd6 4b3c 215b 523a
000000c0: ff18 9dbd a344 133c bada 7fbc d2ad de3c
000000d0: 8d93 d13b 5136 86b9 96fe 4b3d baff 84bd
000000e0: bfde 93bd 1c69 babc 70ef 35bd e5bf 00bd
000000f0: de09 7ebd d240 073d 3714 acbd 28f1 dd3c
00000100: 317f 52b9 9d16 d1bc 9277 983d d716 693d
00000110: fe49 f23a f5b4 8ebd 71d2 8ebd 0db5 403d
00000120: 70f3 2ebb d9dd a3bd 1d0e 893d 0e8d 033d
00000130: 8e4c 3b3c f8ce 7fbc 4f1c 52bd f296 743d
00000140: bac0 e83c b23b 8f3d ba5e a6bd 4868 a83d
00000150: 6d2e 89bd b514 13bd 0c40 8a3d c64b 94bd
00000160: fcdc f63c 30d3 9e3d aa3a 2bbd 537e 813d
00000170: 8bf6 343d 4d3c a83d a2dd 42bd 43b8 8c3d
00000180: ad6a 853d 0fce 8bbd f2e8 a13d de1a 313d
00000190: cb3c 0cbd 965a b23d 9e5e 0b3c 89e2 25bd
000001a0: a55d ab3d 5930 6c3d 4685 90bd 6959 0e3c
000001b0: 3e89 933d ad0a efbc 52be 8bbd 16ac 5cbd
000001c0: 60be 8b3d d3d9 503d d4b8 d53c 5c85 b0bc
000001d0: ab5e 02bd e297 8d3d 3097 d7bb b6b9 a4bd
000001e0: da40 b13d e9d6 9db9 8d89 90bc a8d3 1e3d
000001f0: b961 b33b 24c3 983d ebc9 4f3d f963 dabc
00000200: bfc6 3a3d 6f2a 85bd 03a6 123d e350 0f3d
00000210: 0200 6c3d 2d03 dc3b dcfe 08bd 116b a2bd
00000220: e0df 073d aec0 8fbd aebc 21bd 5b8d 8f3d
00000230: 868b fc3c 60ce 61bd c18f 973d 100d 43bd
00000240: 6d8f 19bc 7c1f a83d ae4b 493d 0942 9cbd
00000250: b06c 87bd d998 2a3d 14b2 5b3c a494 5abd
00000260: ec5c 413c 15dc 833d b834 4f3c b18e 2fbc
00000270: 7237 60bd 9963 a4bd ba07 aa3c 9cba 723d
00000280: c194 683d 7ae1 a8bd 1d8e 053c f208 a93c
00000290: 98db 583d e089 a43d 2e8d 91bd 8fba a03d
000002a0: 9f74 303d 4c75 323d cc0f bebc a960 96bd
000002b0: e066 76bc 2ee8 5e3d 2111 e73c c7d3 44bd
000002c0: cc22 253d fee2 9ebd e078 efbc 6836 67bd
000002d0: 55f7 ce3c 288c 21bd 2bca 173c 0251 613d
000002e0: fa34 05bc 3247 4d3d cb18 33bd fd5f 8e3d
000002f0: 341a 663d b7dd 023d 8d8a 76bd a50a 5e3d
00000300: ff14 a33c c200 66bd d36e a3bd 6dc9 91bc
00000310: 8bf9 743d df39 6abd b6f6 513d e709 863c
00000320: b2cd 063d b28e 96bd 337f c8bb c77a 94bd
00000330: 90d1 b0bd 77f0 1b3d 138a a13d c017 8c3d
00000340: f9fa 8cbd 4974 423d dae2 30bd 80c0 78bd
00000350: 1870 0cbd bfce aa3d 989a 67bd f6a7 93bd
00000360: 2762 1a3d a298 853d 7c07 9bbd 1d36 f0bc
00000370: 9066 aebd 88f8 473d 4cc0 683d 2dca 8b3d
00000380: 94cf a03c f8be e73a b5e0 13bd eff7 45bc
00000390: f9dd 85bd 0c56 833d fab1 843d 5053 a03d
000003a0: 3328 adbd 6e50 55bd e190 46bd 1154 8c3d
000003b0: a046 783d 8420 89bc 73da cfbc 0402 133d
000003c0: 5b53 8bbd 4781 8b3d 131c 20bd e138 0dbd
000003d0: f613 183d 6e38 a63d 809a db3c 4faa a33c
000003e0: 1192 9fbd ec80 a53d 5cd0 b3bd 24a8 84bd
000003f0: cbf5 14bd f8bc 4b3d 0997 a9bd 1f8c 58bd
0.062570095 0.014374857 -0.016178204 0.08471138 -0.021084277 0.00610123 -0.055663057 0.024109008
0.057685968 0.06959512 -0.05244251 0.056296557 -0.073600754 0.08578804 0.08172818 -0.008896999
0.0103963 0.07511029 -0.029004501 0.0025563117 -0.07195063 0.0063390024 -0.02260152 -0.036223963
0.08653553 -0.057079066 -0.06181124 -0.011570742 0.038271002 0.06507119 -0.027819827 -0.033809833
-0.009489795 -0.04201907 -0.0778839 0.029158728 0.0524429 -0.077392325 -0.07256915 0.02550568
-0.08538804 0.005857622 0.018555392 -0.01777675 -0.055777077 -0.031969007 0.01244117 0.00080244435
-0.07670783 0.008988532 -0.015616113 0.027182493 0.0063957633 -0.0002559894 0.04980334 -0.064940885
-0.0722022 -0.022755198 -0.0444178 -0.031433005 -0.06202113 0.0330208 -0.08402293 0.027092531
-0.00020074543 -0.025523478 0.07444681 0.056906547 0.0018485186 -0.069681086 -0.06973732 0.047047663
-0.0026695393 -0.080012985 0.06692145 0.032116942 0.011431826 -0.01561331 -0.05129653 0.059714265
0.028412212 0.06993808 -0.081235364 0.08223015 -0.06698308 -0.03590842 0.06750497 -0.07241015
0.03013467 0.077551246 -0.041803993 0.063229226 0.044180434 0.082146265 -0.047574647 0.06871083
0.065144874 -0.06826412 0.07905759 0.043238513 -0.034237664 0.08708684 0.008506445 -0.040499244
0.08367471 0.057663295 -0.0705667 0.008688309 0.07203911 -0.029179895 -0.0682341 -0.05387505
0.068234205 0.050988983 0.02608911 -0.021547966 -0.031828564 0.06913735 -0.0065793023 -0.08043234
0.086549476 -0.00030105494 -0.017643714 0.03877607 0.005474296 0.07459095 0.050729673 -0.026658999
0.045599695 -0.06502234 0.035802852 0.03498925 0.057617195 0.006714246 -0.033446178 -0.079305775
0.03317249 -0.070191726 -0.03948658 0.07009383 0.030828249 -0.055128455 0.07400466 -0.04761988
-0.009372574 0.0820913 0.04914444 -0.07629783 -0.06612527 0.041649673 0.013409156 -0.05336441
0.011801939 0.06438462 0.0126468465 -0.010715173 -0.054740377 -0.08026809 0.020755637 0.059259996
0.056782488 -0.08246131 0.008151558 0.020634148 0.052943796 0.0803411 -0.07107006 0.07848083
0.04307997 0.043568894 -0.023200892 -0.07342655 -0.015039176 0.054420643 0.02820641 -0.04805353
0.040316388 -0.07758139 -0.029232442 -0.05644837 0.025264421 -0.039440304 0.009264509 0.055008896
-0.008130306 0.050116725 -0.043724816 0.06951902 0.056177333 0.031949725 -0.060190726 0.05420937
0.019907473 -0.056153066 -0.079801224 -0.017796243 0.059808295 -0.057184096 0.051260673 0.016362144
0.03291101 -0.07351436 -0.006118679 -0.072499804 -0.08633721 0.038071122 0.07887664 0.068404675
-0.06883807 0.04747418 -0.043185093 -0.060730457 -0.03428659 0.08340215 -0.056543916 -0.072097704
0.03769126 0.06523253 -0.07569787 -0.029322678 -0.08515656 0.048821002 0.056824014 0.06825671
0.019630231 0.0017680814 -0.03610297 -0.012083038 -0.065364785 0.064128965 0.06479259 0.078283906
-0.08454933 -0.052078657 -0.04847801 0.06851972 0.06061423 -0.016739137 -0.02537272 0.035890594
-0.06803008 0.06811767 -0.039089274 -0.034478072 0.03712841 0.08116232 0.02680707 0.01997867
-0.07791532 0.080812305 -0.08779976 -0.06477383 -0.03636722 0.04974076 -0.08280761 -0.052868005

fc3.bias f4 [20]
00000000: 5a50 adbd 6326 b3bd 325d 90bd 4907 903b
00000010: cfad 69bd aee1 ebbb 9bec d4bc 2d34 563d
00000020: ce7f 7d3d 8aba dc3d 7916 a1bd f6ff 003b
00000030: 0cdc a3bd 4900 4d3d 7590 2f3d 4e3c 853d
00000040: 615a acbd d8ea 9d3d 96fd bdbc f558 b2bd
-0.084625915 -0.08747556 -0.070490256 0.0043953997 -0.057050522 -0.007198534 -0.025991729 0.052295852
0.061889462 0.10777767 -0.078656144 0.0019683815 -0.08000955 0.0500491 0.042862374 0.06505643
-0.08415676 0.077108085 -0.023192208 -0.087083735
