text_qnetwork.pth (torch, 161412 bytes, 6 tensors)

fc1.weight f4 [128, 160]
000000 71 8f dc ba 73 c4 26 bd 90 e1 c3 bc 14 f3 85 bd
       -0.0016827417 -0.040714692 -0.023911268 -0.06540504
000010 f6 fd 1a 3c 7f 2d b4 bd d9 50 9b 3d 37 0a 10 3b
       0.009459963 -0.0879774 0.0758378 0.0021978745
000020 b9 e9 9b bc 7d 3c a0 3d ce 4d 72 3a 4c 27 a2 bb
       -0.019032346 0.07824037 0.0009243161 -0.004948532
000030 d4 29 58 bd cc e2 6b bd d3 2e 65 3d e3 dd e0 3c
       -0.052774265 -0.057589337 0.05595286 0.027449554
000040 77 48 76 bd 88 3d 8a 3d 17 3a 9f 3d 1e cb 21 bc
       -0.0601277 0.067500174 0.07774752 -0.009875087
000050 8a d0 9e bb 5f db 6b bd 3e d8 c6 bc 3a ea 2f 3e
       -0.004846637 -0.057582255 -0.024273034 0.17179194
000060 c0 98 d0 bc 2e 8b ad 3d 57 9b 0d bc 0f 7a 9a bd
       -0.025463462 0.08473812 -0.008642993 -0.07542812
000070 a3 8c ba 3d 33 9d 00 3d a8 13 a5 bd 06 69 62 bd
       0.091088556 0.031399917 -0.0806039 -0.05527594
000080 77 3f 55 bd 36 5b 0f 3d a3 8c 02 bd 19 cb 36 bd
       -0.052062478 0.034999095 -0.031872403 -0.044627283
000090 00 87 01 3e 2a 0d 90 3d 5e 5a 51 3d b6 78 54 3d
       0.12649155 0.07033761 0.05111157 0.05187293
0000a0 d5 0a 7b bd 9b 96 3f 3d e0 85 6d bd 31 18 3b bd
       -0.061289627 0.046774488 -0.057989 -0.045677368
0000b0 af 28 55 3d fe 73 5f 3d b5 9a c1 bd 72 f9 b0 3d
       0.052040752 0.05455398 -0.09453336 0.08641328
0000c0 37 0a 63 3c c7 46 75 3d ad 15 1d bd a9 91 17 39
       0.013857416 0.05988195 -0.03835075 0.00014454745
0000d0 c1 22 79 3d 3e 9a 22 be 5e 5f 82 3c 60 a8 9d 3d
       0.06082416 -0.15879151 0.015914615 0.076981306
0000e0 ca fa 26 bd bd d7 dd 3b ee 28 94 bc f6 71 bf 3b
       -0.040766515 0.006770103 -0.018085923 0.0058424426
0000f0 de 26 ae 3c 18 a8 c3 bd c5 ac c4 3c 87 6d 65 3c
       0.021258768 -0.09553546 0.024008164 0.014003164
000100 76 9f d0 bb c0 c4 82 bc 5d de 35 3b ff 5d 4c 3c
       -0.0063666655 -0.015962958 0.0027750947 0.012473582
000110 c6 98 ab 3d 50 db d1 3c 45 ef cc bd af 29 89 3d
       0.083787486 0.025617272 -0.100065745 0.06697404
000120 ec dc f5 3c fe f5 0a 3d 80 ac 68 3d d8 f1 23 3d
       0.03001257 0.033926003 0.056805134 0.040025562
000130 d9 14 aa 3c f8 52 d3 3d 2a e5 2e 3d 32 04 96 bd
       0.020761894 0.103185594 0.042699017 -0.07325019
000140 14 a5 3f bd c7 da ac bb ab e1 92 bb 9a 12 13 3d
       -0.04678829 -0.0052751037 -0.004482468 0.03590641
000150 14 80 35 3e 4d de 2d 3e 83 63 78 bc 96 59 f7 3c
       0.17724639 0.16979332 -0.015160444 0.030194085
000160 06 dc d6 3b 28 28 90 3d 3c 1d 8b bd e1 d5 91 bd
       0.0065569906 0.07038909 -0.067926854 -0.07120872
000170 43 4c 35 bd f8 ea 80 3c 97 2d c8 bd d5 09 2a 3d
       -0.044262182 0.015737042 -0.097743206 0.041513283
000180 3d ae 79 3d b7 4c 1f 3d 8b 1e 66 3c 21 d9 14 3b
       0.060957182 0.03889152 0.014045368 0.0022712427
000190 b1 c5 b5 3d 40 b2 aa 3c c4 52 b1 bd 57 34 9f 3d
       0.08875597 0.02083695 -0.086583644 0.07773655
0001a0 1b be 90 3c 42 b1 6d 3d 03 51 cd 3b be 4f 55 3d
       0.017668774 0.058030374 0.006265761 0.052078
0001b0 34 1a 9b bd a0 70 49 bd ad 8c 9a 3d b9 20 45 3d
       -0.07573357 -0.049179673 0.07546363 0.04812691
0001c0 ef 5a 4c bd 76 63 f9 3b b7 ba 13 3d cf f8 8a bc
       -0.04989141 0.0076107336 0.036066737 -0.016964344
0001d0 11 d0 f2 3d ce 46 90 bd e6 cc 4f bd 8e 97 9e 3d
       0.11856092 -0.07044755 -0.050732516 0.077437505
0001e0 76 cc 11 3c e1 60 18 bd e3 ed 0d bd d5 ea 22 3d
       0.008898845 -0.037201766 -0.034650695 0.039774735
0001f0 8e e9 d3 3d fa b5 7d 3c 78 9d 75 3d 96 62 94 bd
       0.103472814 0.015485281 0.059964627 -0.07245366
000200 1d 85 64 3c 9a 4b 12 3d 4b 1c 29 bd ac fe 28 3d
       0.013947752 0.03571663 -0.041286748 0.0412585
000210 8a e3 27 bc c0 9a 4a 3c f7 c3 17 bd d8 65 13 3c
       -0.010247121 0.012365997 -0.03705212 0.008996449
000220 a6 18 bb 3c 6f b7 2a bd a3 51 04 bd 19 87 8c 3c
       0.022838902 -0.041678842 -0.032304417 0.017154263
000230 34 f4 40 3d cc f0 88 3d 22 79 21 3d f0 cd 24 3e
       0.04710789 0.06686553 0.039422162 0.16094184
000240 a8 81 6c 3c a5 38 81 bc 04 5d 94 bd 40 5e 62 bc
       0.014435209 -0.01577408 -0.07244304 -0.013816416
000250 96 f2 af 3d f1 0a 97 bc e3 40 f7 3d d8 c8 14 3d
       0.085911915 -0.018437834 0.12072923 0.036324352
000260 d6 a6 99 bd f2 25 de bc c2 91 fc bc 5e f2 b4 bc
       -0.075025246 -0.027117703 -0.030831221 -0.022088226
000270 f3 eb 75 3d d6 68 cc 3d b1 02 7d 3d 23 1d 03 3e
       0.06003947 0.09980933 0.061770145 0.12804084
000280 c6 dc cf 3c d1 1d 91 bd 8e a0 26 3c 2b d5 41 3d
       0.025373828 -0.07085765 0.010170115 0.047322433
000290 da 05 13 bd 52 ce 93 bd 60 7d 83 3d dc 93 e2 3c
       -0.035894252 -0.07217087 0.06420398 0.027658395
0002a0 68 20 89 bc dc 47 fe 3c 68 cb 7d bc ec b7 8d 3d
       -0.016739085 0.031040125 -0.01549039 0.06919846
0002b0 ea 07 86 3d a1 23 62 bd 13 99 9a bd b3 2e 10 bc
       0.06544478 -0.05520976 -0.07548728 -0.008800196
0002c0 41 23 22 3d 78 c4 3b 3d a7 6f 23 bd c0 4b 6a bd
       0.039584402 0.045841664 -0.0399014 -0.057201147
0002d0 8e 23 07 3c 79 6f 2e bb fe d2 87 3d b8 df af 3b
       0.008248223 -0.0026616736 0.066320404 0.0053672455
0002e0 ba 3d b5 3b f2 92 29 bd 3e fa a2 bc c1 f7 07 3d
       0.00553104 -0.041399904 -0.019894715 0.03319526
0002f0 b3 94 06 bb ff 41 a8 3c b6 25 94 bd 7e 80 c5 3c
       -0.002053541 0.020539282 -0.07233755 0.024109121
000300 f7 39 93 bd 4d 43 a1 3d 4c d3 96 bd cf 45 a1 bd
       -0.0718879 0.07874165 -0.073645204 -0.07874643
000310 9d 01 48 bd 9d cf 8c bc 37 4f 31 3c 00 9a 59 bd
       -0.048829664 -0.017188841 0.010822109 -0.05312538
000320 6f 55 75 bd 6f 04 3f bc a6 6b 35 3d 06 0a 88 bd
       -0.05989593 -0.011658772 0.044292115 -0.06642537
000330 99 c7 37 3d e7 dc 0a bb 0f 5b e2 3c b5 20 c7 3c
       0.044868086 -0.0021188797 0.02763131 0.024307588
000340 21 85 ba bc dd 4e a0 bd 82 ad 0f bd ad c9 93 bd
       -0.022768559 -0.07827542 -0.03507758 -0.07216201
000350 67 ed f4 3c 08 08 6e bd 58 c1 16 3d 6e 02 41 3b
       0.029898359 -0.058113128 0.03680548 0.002945091
000360 a9 f0 73 bd 83 7c 61 3d a7 0e 15 bc 7b d5 24 bd
       -0.059555683 0.055050384 -0.009097732 -0.040242653
000370 96 8e f9 bc d8 51 01 3d 9e 88 bf 3c c1 81 0b bd
       -0.030463498 0.031572193 0.023380574 -0.03405929
000380 0e a3 14 bd 0a 74 1b 3d 45 b4 ce bc f5 d2 18 3d
       -0.036288314 0.03795246 -0.025232444 0.03731056
000390 75 60 7b 3d fd 19 87 bc 17 d3 e9 bc 0c 23 7a 3d
       0.061371285 -0.016491884 -0.028543038 0.06106858
0003a0 d8 43 16 bd 67 d4 67 3d a7 ce b7 3c 6e 84 d6 bc
       -0.036685795 0.056599047 0.022437407 -0.026186194
0003b0 90 30 8f bd 49 15 5b bd 34 5a 11 bc 2f cc 09 bd
       -0.069916844 -0.053487096 -0.008871604 -0.03364199
0003c0 bc 91 06 3d 50 30 90 3d 7f 45 7c 3d 8d 6e 39 bd
       0.032853827 0.07040465 0.061589714 -0.045271445
0003d0 0d be 82 3d 3f eb 6d 3d bc ce 07 3d b8 63 dc bc
       0.063839056 0.058085676 0.03315614 -0.026903018
0003e0 50 9f a0 3d 4f c5 30 bd 79 0b 93 3d 12 5e 7a bd
       0.078428864 -0.04315692 0.071799226 -0.06112487
0003f0 f8 33 0a bd d2 5f 8b 3c 11 b7 84 3d 96 5c 3e bd
       -0.033740968 0.017013464 0.0648023 -0.046475016

fc1.bias f4 [128]
000000 ae b1 34 bd e6 33 92 3d 2b 43 70 bd 00 77 81 bc
       -0.04411476 0.07138805 -0.058657806 -0.015803814
000010 60 24 73 bd 60 29 af bc 55 60 70 bd 1b ad 03 3d
       -0.05936086 -0.021382034 -0.05868562 0.032147508
000020 78 bd 99 3b 8b d6 6d bd 92 95 67 bd ae 6c 7e 3c
       0.004691776 -0.058065932 -0.056539126 0.015528841
000030 ea f6 90 bd 96 3a 85 3d 60 27 77 3d fe 3d 83 3d
       -0.07078345 0.06505315 0.060340285 0.064083084
000040 b6 2b 8e bd 31 26 25 bc ce ef 5c 3d 71 1b 86 bd
       -0.06941931 -0.010079906 0.053939633 -0.06548203
000050 e6 78 41 3c 18 b4 9e 3c 61 e3 97 bd 05 27 87 bd
       0.01180861 0.019372985 -0.07416416 -0.06599239
000060 7a fb a1 3c c7 02 1c 3b c8 c0 a8 3c 79 ab 93 3d
       0.019773234 0.0023805366 0.020599738 0.0721044
000070 9e 8c 8a 3c d2 ac b8 3c 5a be 97 bd d4 f5 b7 3c
       0.016912755 0.022543345 -0.074093536 0.022456087
000080 53 b7 b6 bc 46 78 27 bd 1e 03 b9 3a 93 14 1b 3d
       -0.022304213 -0.040886186 0.0014115309 0.037861418
000090 27 e6 67 3d 60 68 58 3c 41 3f 64 3d 7b 7f 9b 3d
       0.056615975 0.013208479 0.055724386 0.07592674
0000a0 1c b3 78 3d 70 69 52 bd ec 3b d1 3c 92 0b 9f bc
       0.060717687 -0.051370084 0.025541268 -0.019414697
0000b0 19 03 89 3d e7 b2 1d 3c 14 cb 66 3d 69 2c 19 3d
       0.06690044 0.009625173 0.056346014 0.03739587
0000c0 f0 42 a7 ba 39 2a e9 3c 5f 92 d7 bc 44 60 b0 bc
       -0.0012761038 0.028462516 -0.026314912 -0.021530278
0000d0 25 16 2d bd 31 72 ed 3c 79 a4 ab 3d aa a3 54 3d
       -0.042257447 0.028985115 0.0838098 0.051913895
0000e0 b3 db d0 3c bd f1 95 bd 4a 45 1a 3d 42 7e 99 3d
       0.025495386 -0.073214985 0.037663735 0.07494785
0000f0 47 ca 81 3d 6f cf 92 bb 24 84 80 3c 50 7a aa bd
       0.063374095 -0.0044802944 0.01568801 -0.083241105
000100 cd 1a 9b 3d bb e2 5d bd b3 c9 12 bc 95 49 98 bd
       0.07573471 -0.054171305 -0.008959222 -0.0743591
000110 65 1e 88 3d 0f 40 b8 bb e7 76 54 3d 5c f4 a2 bc
       0.06646422 -0.0056228708 0.051871207 -0.01989191
000120 8b 24 94 bc d5 99 a9 bd dc bc 1e 3d c3 82 bc 3c
       -0.018083831 -0.08281294 0.03875433 0.02301157
000130 78 24 1b bd a6 5b 85 bd ab 1d 04 3b c0 10 43 bd
       -0.037876576 -0.06511621 0.0020159285 -0.047623396
000140 a2 7f 74 bc 7f 00 64 3d 27 f4 91 bd a8 0c 87 3d
       -0.014923008 0.055664536 -0.071266465 0.06594211
000150 be 01 9e 3b 88 33 68 bd 49 ab 02 3c a7 5c 9e 3d
       0.004821985 -0.05668977 0.007975408 0.07732516
000160 41 21 0c 3d 14 85 82 bd 33 09 8d bd 61 74 7c 3d
       0.0342114 -0.06373039 -0.0688652 0.061634425
000170 ce 20 7a bd 16 e8 c5 3c c9 fd 83 3c 47 96 17 bd
       -0.06106644 0.024158519 0.016112225 -0.03700855
000180 bf 52 83 3c 5c 29 13 bc 80 67 87 bd 52 17 f2 bb
       0.016030667 -0.008982029 -0.06611538 -0.007388034
000190 f9 a7 61 3d d7 43 11 bd 17 ed 53 3d 8b b6 8d bd
       0.05509183 -0.035465088 0.05173978 -0.06919583
0001a0 86 b6 37 3d f5 b8 69 bd fc 29 57 bd 92 7b aa 3c
       0.044851802 -0.057061154 -0.052530274 0.020810876
0001b0 46 45 87 bc 74 21 23 3d 16 4a a2 3d 81 74 84 bd
       -0.016512524 0.039826825 0.07924287 -0.06467534
0001c0 f0 38 c3 bc b5 11 ee bc 0e 1b 2f 3d a1 ae 20 bd
       -0.02383086 -0.029061178 0.04275041 -0.03922904
0001d0 43 1a b6 ba 82 0e ce 3c 9b 5b f6 3c 4e 70 2e 3c
       -0.0013893325 0.025153402 0.030072978 0.010646893
0001e0 27 bd 8f bc b3 fc fd 3c b7 d1 10 bc e9 f0 8f 3b
       -0.01754625 0.031004285 -0.008839062 0.0043927324
0001f0 63 14 7b bc 21 9e bc bc f7 1d 62 3c 5a 53 a2 bc
       -0.015324685 -0.02302462 0.0138010895 -0.019815136

fc2.weight f4 [128, 128]
000000 1a 42 86 3d 70 23 8c bd b7 32 39 bd ce 13 5c bd
       0.065555766 -0.06842697 -0.04521438 -0.053729825
000010 74 ca 20 bd a3 3d 85 3d 8c 58 17 bd f2 ac 81 3d
       -0.039255574 0.06505897 -0.03694968 0.06331815
000020 04 e2 85 3c 31 05 42 3d 03 e9 89 3d 63 98 3a bd
       0.016343124 0.047368232 0.067338966 -0.045555484
000030 98 87 16 bc f1 6f b1 bc e4 35 f5 3c bd 50 ba 3b
       -0.0091876015 -0.021659823 0.029932924 0.0056858943
000040 e5 45 81 3d bc ee c2 3b ef d6 18 bd 40 52 8c bd
       0.063121594 0.0059488695 -0.03731435 -0.068516254
000050 37 49 a2 bd 07 2c a4 3d 12 4f a7 3d 16 12 8c bd
       -0.07924121 0.0801621 0.08169378 -0.06839387
000060 80 93 24 bc 8d e3 8c bc ef 87 08 bc 59 fe 31 3d
       -0.010044932 -0.017198348 -0.00833319 0.043455455
000070 2d 38 f7 bc b1 76 66 bd dd 15 20 bd 98 e8 8f bc
       -0.030178154 -0.056265537 -0.03908335 -0.017566964
000080 27 df 0c 3d c4 fb 8a bd 3f 69 c6 3a 3e 68 22 bc
       0.034392502 -0.06786302 0.0015137567 -0.009912549
000090 3e 86 58 3d 43 ba f7 bc be b6 3b 3d 81 86 4c bd
       0.0528624 -0.030240184 0.045828573 -0.04993296
0000a0 36 0f 55 bb d4 36 8d 3d c4 b3 25 3d ed db ae bb
       -0.0032510287 0.06895223 0.04045464 -0.005336276
0000b0 4a b2 37 3d eb 51 1f 3d 5d 58 3c bd aa 38 7f 3a
       0.044847764 0.038896482 -0.045982707 0.00097359216
0000c0 48 9b ae bd cf 06 69 3d 9c 0d 44 3d 5c c0 5c bd
       -0.08525711 0.05689126 0.04786454 -0.053894386
0000d0 73 41 ad 3d a5 4a 52 bd 62 8d 51 3d 0f a6 4a bd
       0.08459749 -0.051340718 0.051160224 -0.049474772
0000e0 11 b7 2a 3d 7e c5 d0 bc cd 6f a1 3d 42 e0 be ba
       0.041678492 -0.025484797 0.078826524 -0.0014562684
0000f0 21 a7 a0 3d 5a ed 4f bd 44 e8 5e bc 17 e5 1a bc
       0.07844377 -0.050763465 -0.013605181 -0.009454033
000100 07 e8 96 bc 7d 90 27 bd 08 35 81 3d c7 20 6c 3d
       -0.018421186 -0.04090928 0.06308943 0.057648446
000110 50 90 29 3c 48 dc 93 3d 71 c7 71 bd 25 1f 4c bc
       0.010349348 0.0721975 -0.059028093 -0.012458597
000120 fb 83 c7 3c 42 e1 d2 bc b5 d0 31 bb 29 dc 95 bd
       0.024354925 -0.025742177 -0.0027132456 -0.07317383
000130 2e 6c 8a 3d 21 3b 12 3d 48 10 2b 3d f0 88 8f bc
       0.06758915 0.03570092 0.041763574 -0.017521352
000140 0b 27 85 3d 96 08 0f 3d a5 bc fc 3c 7a fe 96 3d
       0.065015875 0.034920298 0.030851671 0.07372756
000150 39 4b 84 bd f1 eb 7a bd 2b 1d ce bc 25 35 69 bd
       -0.0645966 -0.061260168 -0.025160393 -0.05693545
000160 78 75 7c bc be 98 96 3d d1 21 18 3d f4 b7 80 bd
       -0.015408866 0.07353352 0.037141625 -0.06285086
000170 61 df 9d bd 30 74 3b 3d fc 6b 95 3d 4a 4f b0 bc
       -0.07708622 0.045765102 0.07295987 -0.021522183
000180 2e e8 27 bc 9c a0 a6 bd 84 5c 75 3d e0 f8 a1 bc
       -0.010248227 -0.081361026 0.059902683 -0.019771993
000190 95 49 ae 3d 04 30 07 3d f7 5f 1c bd f9 6a b4 bd
       0.085101284 0.033004776 -0.038177457 -0.08809466
0001a0 c4 b9 83 bd e3 10 56 bd cb 61 95 bc 1d a1 c9 bc
       -0.06431916 -0.0522622 -0.018235108 -0.024612958
0001b0 e9 01 89 bb 2f be 27 3d 7a 72 2e bc 76 2f 3a 3d
       -0.004181136 0.040952858 -0.0106474105 0.04545542
0001c0 66 bb 9c bd be 2f 91 bd 11 92 38 3d 70 a2 b0 3d
       -0.07652931 -0.07089184 0.045061175 0.086247325
0001d0 ba 17 3a 3d 03 3a a1 3d 12 ba 83 bd a1 e2 b5 3c
       0.045432784 0.07872393 -0.064319745 0.022202792
0001e0 e8 72 a7 bd 8b 2a 0c bd 48 8c 51 3d 39 55 87 3d
       -0.081762135 -0.03422026 0.051159173 0.06608052
0001f0 d9 40 b2 bc b8 30 b2 bc e6 85 4e bd ae ce 3a bd
       -0.021759437 -0.021751747 -0.050420664 -0.04560726
000200 ce cb 59 bc 2d dc 8f bc 18 1a a9 3d 42 2c 14 3d
       -0.01329322 -0.017561043 0.0825693 0.03617502
000210 9d b2 6b 3c 04 93 9c 3d 75 2a a7 3b f6 75 82 bc
       0.014385846 0.076452285 0.005101497 -0.015925389
000220 c4 f6 a3 3d 79 5b 84 bc ea f5 62 3d a8 23 a0 bc
       0.08006051 -0.016156899 0.055410303 -0.019548252
000230 3a d7 99 bc 2c fb a6 bd a9 7d dc 3c e5 65 3d bd
       -0.018779386 -0.08153376 0.026915388 -0.046239752
000240 67 87 94 3d 57 e0 05 3d c2 25 06 3d e9 e7 1a bd
       0.072523884 0.03268465 0.032750852 -0.037818823
000250 9f e5 6a bd 2e ee c7 bc 86 a7 d5 bc 4a eb e3 3c
       -0.05734789 -0.024405565 -0.026080858 0.027822156
000260 f5 ff 92 bd 2c e6 81 ba ce 11 d9 bc d3 38 12 3d
       -0.07177726 -0.0009910516 -0.026497748 0.035698723
000270 67 d3 97 bd f9 4b 50 3d e8 01 4b 3d f7 37 1b 3c
       -0.07413369 0.050853703 0.049562365 0.009473792
000280 9b f9 42 bb c9 39 13 3d 3c b7 b0 3d 47 fb 75 bd
       -0.0029750827 0.03594378 0.08628699 -0.06005409
000290 07 03 a2 3d 65 a7 53 3d 37 a3 d7 3b e1 2a bf 3d
       0.07910734 0.05167331 0.006580736 0.093343504
0002a0 d1 da 0c 3d d3 e1 83 bd 81 ed 9b 3d 9b 29 d3 bc
       0.034388367 -0.06439557 0.0761366 -0.025776675
0002b0 24 d0 92 39 6f 9c 98 3d f5 5f 81 3d ed 57 a1 bd
       0.00028002367 0.07451712 0.063171305 -0.07878099
0002c0 40 66 94 bb 56 a7 38 3d 65 06 7f 3d 53 00 88 bd
       -0.0045287907 0.04508146 0.062261958 -0.06640687
0002d0 e1 58 90 bd 5c 61 4a 3c 8c 43 b5 3c 55 62 6c bc
       -0.07048202 0.012352314 0.022126935 -0.014427741
0002e0 50 d7 77 bd b9 46 96 bd 4a 06 86 3d 4f 6a ef 3c
       -0.060508072 -0.07337708 0.06544168 0.029225497
0002f0 f8 3d 97 3d 9c 08 80 bc 6a 38 52 3d 5d 1a 65 bd
       0.073848665 -0.015629105 0.051323332 -0.055933345
000300 96 43 38 3d 0b 60 3c 3d 85 fc b6 3c 1f 15 14 bd
       0.04498633 0.04599003 0.022337208 -0.036152955
000310 82 82 23 bc c6 b8 64 bd 21 21 6d bc 80 7b ad 3d
       -0.009979846 -0.055840276 -0.014473231 0.084708214
000320 9e 86 28 bd 5d 0f 44 3d 20 09 0b bd f0 72 44 3d
       -0.041144006 0.047866214 -0.03394425 0.047961175
000330 5e 37 b4 3d 95 01 a6 bc 9a fe 2f bd 30 fb 48 bd
       0.08799623 -0.020264426 -0.042967416 -0.049067676
000340 ba ec f0 3c d0 bf e4 bc e2 91 ad 3d 3a 81 19 3d
       0.029409755 -0.027923495 0.084750906 0.037476756
000350 d0 a9 63 3d 5d e9 57 bd 17 6a 9b 3d 68 a7 ac bd
       0.055581868 -0.052712787 0.075885944 -0.08430368
000360 13 45 b4 3d 0a 21 06 bc b0 26 02 3d f1 bb a2 3d
       0.08802237 -0.008186588 0.031775177 0.07946003
000370 53 e9 9a bd 2f 97 a3 bb 41 fd 7f bd 15 c0 94 bd
       -0.07564034 -0.0049923877 -0.06249738 -0.07263199
000380 da 46 16 bb fb 88 20 bd 29 52 86 bc 2f c0 5b 3d
       -0.0022930414 -0.039193135 -0.016396599 0.053650077
000390 d0 b6 98 3d c8 b5 2f 3d 78 8d 72 bd 0d 92 d0 bc
       0.07456744 0.04289797 -0.059216946 -0.025460267
0003a0 85 d1 cb 3c 82 62 0f 3d c0 e0 27 3c 57 43 73 3d
       0.02488018 0.035006054 0.010246456 0.059390392
0003b0 8f 0a 73 3d 6d 33 27 3c f0 ea 66 bd 21 fb 7d 3d
       0.05933624 0.010205132 -0.056376398 0.062007073
0003c0 54 26 0d bd d8 43 7b 3d 4a cd 66 bd 04 87 96 3d
       -0.03446038 0.061343998 -0.056348123 0.07349971
0003d0 05 67 db 38 af f2 63 bd 14 94 63 3d b2 cc 35 3d
       0.00010461923 -0.055651363 0.05556114 0.044384666
0003e0 e6 e9 a3 bd 28 af e0 3b f3 ec 7a 3d cd d8 c3 bd
       -0.08003597 0.0068568178 0.06126113 -0.09562836
0003f0 7b be b1 3d f5 e3 05 bd f6 86 88 bb cb 66 7d 3d
       0.086789094 -0.0326881 -0.004166479 0.06186561

fc2.bias f4 [128]
000000 3f 06 6d 3b 90 d6 21 bd 9f 97 5f bd 3f 60 9c 3d
       0.0036167053 -0.039511263 -0.054587957 0.07635545
000010 9b 56 be bb ad 6b 97 bd 8c c0 91 3d 3e a6 80 bd
       -0.005808664 -0.073935844 0.071168035 -0.06281708
000020 d2 a4 6d bb 03 b0 28 bd ce d1 c8 3d 68 60 18 bd
       -0.003626157 -0.041183483 0.09805642 -0.037201315
000030 23 34 ab bc b4 9f 93 bd 22 58 9a bc 50 40 d9 bc
       -0.020898884 -0.07208195 -0.018840853 -0.026519924
000040 6e a4 de bc ce f7 d9 bc b3 48 e0 bc 71 94 20 bd
       -0.027178016 -0.02660742 -0.027378416 -0.039204065
000050 1c 9a 9e ba 54 28 39 bc 51 50 22 3d b5 b9 2d bb
       -0.0012100372 -0.011301119 0.039627377 -0.0026508395
000060 5a 2e 09 3d 3f 41 2c bd 84 98 46 bc e6 91 1b 3d
       0.03349147 -0.04205441 -0.0121213235 0.037980936
000070 6e 9a a3 bd 00 fe 4c 3c ff c4 81 3d ca d4 14 bd
       -0.079884395 0.01251173 0.06336402 -0.036335744
000080 1a 8d 2e bd 00 55 6d bd ab 0f 39 bc 3f e0 e2 bc
       -0.042615034 -0.05794239 -0.011295239 -0.02769482
000090 25 51 91 3c f7 89 18 bd 59 c4 0b bc b0 67 ef 3c
       0.017738888 -0.03724095 -0.0085307 0.029224247
0000a0 9b f4 84 bd a8 72 e4 bc 56 44 a5 bc 1e 51 b3 3d
       -0.06491967 -0.027886704 -0.020174187 0.08755706
0000b0 51 bf 0b bc 75 72 16 3d b0 e8 29 3d 22 8d f4 bc
       -0.0085295 0.03673025 0.041481674 -0.029852454
0000c0 01 1a 45 3d c7 d3 a3 3d 5e 25 2d bd 8c fb 68 bd
       0.048120502 0.07999378 -0.042271964 -0.05688052
0000d0 f1 41 37 bd 47 97 bb 3d cf 29 52 bc de 1f 0e bd
       -0.04474062 0.09159713 -0.012827351 -0.03469836
0000e0 b0 81 ca 3c 1a 93 69 bd 2b 61 ba 3a eb 34 90 bd
       0.024720043 -0.057025053 0.0014219632 -0.07041343
0000f0 53 e8 0e 3d b7 50 2f bc e3 95 04 3d f5 f7 c6 3c
       0.03488953 -0.010700396 0.032369506 0.024288157
000100 25 f6 1d 3c 99 b8 ca bb 36 83 05 bd 88 75 0d 3d
       0.009641205 -0.0061865565 -0.032595836 0.034535915
000110 18 7b 93 bd 23 11 07 bd f3 27 7d bd 12 9b 84 bd
       -0.07201213 -0.032975327 -0.061805677 -0.0647489
000120 c6 71 ea bc 89 e6 16 3d b4 f4 17 bc 63 92 3c 3d
       -0.028618705 0.03684095 -0.00927465 0.046038043
000130 c7 50 97 3d 30 19 92 bd 0d b2 7b bd d3 f8 97 3d
       0.07388454 -0.071337104 -0.0614491 0.07420506
000140 01 b4 91 3d 25 b6 3d bd d3 cc a2 3c 45 f7 50 bd
       0.07114411 -0.046316285 0.019873058 -0.051017065
000150 fe 38 85 bd 10 56 58 bc 07 fa 07 bd ed ca 85 bc
       -0.06505011 -0.013204113 -0.03319743 -0.016332114
000160 cd 6a f9 3c 01 ee b0 3d b0 04 32 ba e0 b1 20 bc
       0.030446434 0.08639146 -0.00067908596 -0.009808034
000170 24 b7 05 bc 0f 90 2f bb 4c e1 85 b9 6f e9 b2 bd
       -0.00816134 -0.0026788746 -0.00025535596 -0.0873593
000180 f6 93 7b 3d 4a c5 67 bd 27 f9 12 ba bd 63 22 bd
       0.061420403 -0.056584634 -0.00056065846 -0.0396459
000190 e7 87 dc 3c 65 e8 94 bb b6 4b b6 bd 6e 4d d6 3c
       0.026920272 -0.004544305 -0.089011595 0.026159968
0001a0 d4 b9 bf 3c 0c 94 81 bd 58 e6 b0 bd e5 f5 3c 3d
       0.02340404 -0.06327066 -0.086376846 0.04613294
0001b0 52 9c c2 bc 45 df f8 bc 70 35 96 bc 02 9c 68 bc
       -0.02375618 -0.0303799 -0.018336028 -0.014197351
0001c0 22 55 49 bd 15 43 9e 3d 5c e8 20 3d 45 6e b4 3d
       -0.049153455 0.07727639 0.039284095 0.08810095
0001d0 03 5b 05 3d 93 cd 0a bd 18 95 32 3d 71 f0 47 bd
       0.0325575 -0.033887457 0.043599218 -0.048813287
0001e0 87 c1 b8 bd 08 e2 0e bd bb 1f 0e 3c 86 5e 9a 3d
       -0.090212874 -0.03488353 0.008674557 0.0753756
0001f0 9c 1f 85 3d 4c 03 cb 3c dc 39 b0 3d a9 71 88 ba
       0.0650017 0.024781846 0.08604786 -0.001040985

fc3.weight f4 [20, 128]
000000 a2 58 84 bd 2f 02 c2 bc 20 c3 ff bc 11 d3 77 3d
       -0.06462218 -0.023682682 -0.031220973 0.060504023
000010 f7 d9 c6 3c 31 47 92 bd 00 7a ce 3b 5c 82 a7 bc
       0.024273856 -0.07142485 0.0063011646 -0.020447902
000020 99 8e 51 bb 0b e7 5e bd b5 e5 80 bd 5a fe ac bd
       -0.0031975864 -0.05441956 -0.06293813 -0.08446951
000030 f5 b2 95 3c 04 fc b1 3b 92 c2 9f 3d 63 25 33 3d
       0.01827381 0.005431654 0.07800783 0.043736827
000040 c9 a6 86 bd 64 92 9a 3d 47 ab fc bc 09 7f 33 bd
       -0.065747805 0.07547453 -0.03084339 -0.043822322
000050 07 6a 75 3d 79 10 a6 bc 80 d5 87 bc f2 22 37 3d
       0.05991557 -0.020271527 -0.016581297 0.04471106
000060 5f 4f df 3b e9 4e 24 bc 19 e9 66 bd 35 29 53 bc
       0.0068148817 -0.010028579 -0.056374643 -0.0128882425
000070 49 7e aa bd 0e 36 bc bc ee 66 78 bd 5a 8a 11 bd
       -0.08324868 -0.022974994 -0.060645036 -0.035532333
000080 38 66 46 bd 24 af 86 3d 12 d2 2c 3d 07 b1 12 b9
       -0.048437327 0.06576374 0.042192526 -0.00013989593
000090 9a ea 01 3d bd 11 0c bc 5b 0b 66 3d b4 3e 92 3d
       0.031717874 -0.008549151 0.056163173 0.07140866
0000a0 17 06 56 bd c5 a6 b3 3d 3f 80 08 3d ff 84 43 bd
       -0.0522519 0.08772043 0.03332543 -0.047734257
0000b0 19 05 17 bd 07 61 e3 3b d4 e9 03 3b 6b 46 79 3d
       -0.036870096 0.006939057 0.0020128386 0.06085817
0000c0 bd 90 04 3d 14 89 18 3d 5a 70 89 3c 9d fe b2 3d
       0.032364596 0.037240103 0.016777206 0.0873997
0000d0 42 2c 2d 3d a9 56 7d 3d 3f 18 0a 3c f9 7e b3 3d
       0.042278536 0.061850224 0.008428632 0.087644525
0000e0 e8 54 46 bd 22 02 8c 3d 4f b2 82 bd 96 64 ca bc
       -0.048420817 0.06836344 -0.06381666 -0.024706166
0000f0 51 9a 8e bd c2 90 70 3b 95 52 c5 3c 9f 93 1b 3d
       -0.06963027 0.0036707376 0.02408723 0.03798258
000100 27 ee 0d bb c6 f5 0b 3d 33 e8 da bc d4 5d 34 3d
       -0.0021656842 0.034169935 -0.02672205 0.044034794
000110 66 d2 15 3c 07 00 a0 3d 76 34 ce 3c d1 fc 82 bd
       0.009144401 0.07812505 0.0251715 -0.06395877
000120 73 7c 0b bd 7a e3 d9 3c 94 bc 76 3d 88 a7 ae 3c
       -0.03405423 0.026597727 0.060238436 0.02132012
000130 7f 89 07 3d 5f 54 06 bd 79 a0 0c bd b3 d1 03 bd
       0.03309011 -0.032795306 -0.034332726 -0.032182407
000140 d4 9e 60 bd b5 83 a6 bd 81 73 88 3d ff 9e c0 3c
       -0.05483897 -0.0813059 0.066626556 0.023513315
000150 52 ad 9c bd 18 15 04 3c f7 90 d1 bc 90 b1 04 3d
       -0.07650246 0.00806167 -0.02558182 0.0323959
000160 12 d0 6f 3c 82 82 2c 3d 00 93 0b 3d b0 f0 96 3d
       0.01463701 0.04211665 0.034075737 0.07370126
000170 6f 15 93 bd 4d a4 7b 3c 6f 0c ed bc be 03 e6 3c
       -0.071818225 0.015358997 -0.028936593 0.028077956
000180 5e ca d2 bc dd 30 8d bd da 69 40 bd e9 82 40 3c
       -0.025731262 -0.068940856 -0.046975948 0.011749961
000190 aa d3 a4 3d 85 38 e8 bc f3 55 9d bc 6c bb 71 3d
       0.08048184 -0.028347263 -0.019206023 0.05901663
0001a0 0c 3f 9f bc 0f a0 8f 3d 56 bf 7d 3c 3e 2e 0c 3c
       -0.019439243 0.07012951 0.015487513 0.008555947
0001b0 4d dd 70 3c 3a da 57 3c 0a 8d cb bc ac 79 a4 bd
       0.0147012 0.013174588 -0.024847526 -0.080310196
0001c0 95 a4 1b bc 3c e6 c5 3c eb 72 61 bd cc b0 42 bd
       -0.009499689 0.024157636 -0.055041235 -0.047531888
0001d0 0e b0 e6 bc 1b 9a ce 3c 86 12 2b bd 3b b6 21 3c
       -0.028160121 0.025219968 -0.041765712 0.009870107
0001e0 8b 07 12 3c 6b 83 e6 bc 16 d9 0a bd 66 f7 31 3d
       0.008912931 -0.028138837 -0.033898436 0.04344883
0001f0 22 11 05 bc 0f 59 12 bd 19 f1 0e 3d 99 4e df 3c
       -0.008121761 -0.035729464 0.034897897 0.027259158
000200 95 b4 71 3d 1d b0 f4 3c ed 87 91 3d 54 a2 9b bc
       0.059010107 0.029869134 0.07106004 -0.018998303
000210 dd 69 25 bd ab 95 41 bd 15 eb 15 bd 5e 81 89 3c
       -0.040384162 -0.047261875 -0.036601145 0.01678532
000220 2a fc b1 bd dd a9 17 bd 0a 08 8f 3d a9 9c b3 bd
       -0.086906746 -0.03702723 0.06983955 -0.08770115
000230 84 47 9e 3c 04 d7 09 3d a6 c9 a8 bd a4 52 42 3c
       0.01932121 0.03365232 -0.082415864 0.011860523
000240 1b 53 7f bd 46 38 5a bd 1d 1c b8 3b 4b 23 c5 3c
       -0.062335115 -0.053276323 0.0056185857 0.02406468
000250 ab 88 af 3d 67 17 99 3d de 19 ac 3d 8b 97 94 3d
       0.08570989 0.07475167 0.08403371 0.07255467
000260 20 6b 74 3d 29 85 da bb 79 06 88 3d eb 45 30 3c
       0.059672475 -0.006668706 0.066418596 0.010758857
000270 8f 35 a8 bd b0 da bf 3c 7a f3 33 3c 59 31 9b 3c
       -0.082133405 0.023419708 0.010983342 0.01894443
000280 a3 04 79 3d ff ed 9f 3d 44 5f 91 bd ee 01 a9 3d
       0.060795438 0.07809066 -0.070982486 0.08252321
000290 ec f4 2f 3d b6 04 36 3d c0 35 4c bd 9e 9f 03 bd
       0.042958185 0.044438086 -0.049855947 -0.032134645
0002a0 e8 46 44 bd e0 cc 88 3a dc 48 a7 3c 93 09 27 bd
       -0.047919184 0.0010437034 0.020420484 -0.040780615
0002b0 71 5d 9d bd 32 fc 41 3c 0e 9a 85 3d c2 a3 86 bd
       -0.07683838 0.011839913 0.06523524 -0.06574203
0002c0 af 7a 90 bd 79 56 a4 3d 6f 60 63 3d 3c 67 ac 3d
       -0.0705465 0.08024306 0.055511888 0.08418128
0002d0 40 97 55 bd 60 44 7f bd b2 4f fa 3b 6b 8e f8 bb
       -0.052146196 -0.062321067 0.007638895 -0.007585337
0002e0 f7 59 81 bd d9 8b 68 3c 68 5c 93 bd 5e 25 3b 3d
       -0.063159876 0.0141934985 -0.071953595 0.045689933
0002f0 b1 77 ae ba 84 7e 8b bd 74 1e 82 3d 1c df 97 3d
       -0.0013310817 -0.0681124 0.06353465 0.074156016
000300 4a df 97 bd 1f a1 b4 3d 7c a4 49 bd 5e db 89 3d
       -0.07415636 0.08819794 -0.04922913 0.06731294
000310 13 4c 9d 3d 1a ee 9e bd 90 ab a1 bd b5 d9 3c 3d
       0.07680526 -0.07760258 -0.07894051 0.04610606
000320 4a 87 9d 3d 97 68 9d 3d 4e 14 42 3d 3c c7 a3 3d
       0.0769182 0.076859646 0.047382645 0.07996985
000330 fa ac 91 3d d8 90 d3 bb 44 a4 aa 3d 3a 96 57 3d
       0.07113071 -0.0064564757 0.083321124 0.0526335
000340 ba 35 b3 3c 85 f6 56 bd d7 8d 89 bd 55 4b 6d bd
       0.021876205 -0.052481193 -0.06716507 -0.05793317
000350 da 62 9e bd a0 8b a1 3c d9 89 29 bd bf 94 d0 bc
       -0.07733698 0.019719899 -0.041391227 -0.025461553
000360 b0 e6 38 3d 5d 93 01 3d 05 51 5d 3c c9 86 ae 3d
       0.045141876 0.031634677 0.013508086 0.08521802
000370 d1 39 7f bc 2b 5a 13 bd be da 49 3c 19 71 eb bc
       -0.015577749 -0.035974663 0.012320219 -0.028740453
000380 e7 51 9a 3c 6c 9e bc 3c 76 e4 3b bd 12 29 19 bb
       0.018837882 0.02302476 -0.045872174 -0.0023370427
000390 c8 7a ff bc 39 01 aa 3d 8a 2c 43 bd 96 0d 1a bd
       -0.031186476 0.083010145 -0.047649898 -0.037610613
0003a0 31 05 ae 3d 4d b2 f4 bc cf 53 8b 3d a7 0f 82 bd
       0.08497084 -0.029870177 0.068030946 -0.06350642
0003b0 32 80 35 bd 81 e0 b0 bd a1 22 1f 3d d6 a1 53 3d
       -0.04431171 -0.08636571 0.038851384 0.05166801
0003c0 56 08 a9 3d b2 17 16 3d e7 f2 aa 3c 0c 00 ce bc
       0.08253543 0.03664369 0.020867778 -0.025146507
0003d0 0c 11 1c bd 85 e0 91 3b ae c0 87 3d f0 ef 4f bd
       -0.038102195 0.0044518136 0.066285476 -0.05076593
0003e0 43 b8 b3 bd 9c 8c e6 bb c7 b1 8b bd 94 b2 3f 3c
       -0.087753795 -0.007035805 -0.06821018 0.011700291
0003f0 3e c7 ac 3d 87 ee 09 3c 99 30 66 bc 6f 17 88 bd
       0.0843644 0.008418686 -0.0140496725 -0.066450946

fc3.bias f4 [20]
000000 22 be c8 bb d9 ec 13 3d 75 e3 80 bb c0 f1 a7 bc
       -0.006126181 0.036114547 -0.003933365 -0.020501018
000010 05 28 41 bc b4 45 ad 3d d5 81 f2 3c 78 b4 9c 3d
       -0.011789327 0.084605604 0.029602924 0.07651609
000020 78 63 8b 3d 57 d7 86 3d f2 83 b3 bd 6d 74 c2 bc
       0.068060815 0.065840416 -0.08765401 -0.023737157
000030 27 c8 81 bd 70 7a f9 3b 9d 96 a8 3c 3f 09 72 3c
       -0.06337004 0.0076134726 0.02057963 0.014772712
000040 44 a4 83 bd c7 3a a6 bd 66 f9 e1 3c 58 74 41 bb
       -0.064278156 -0.0811668 0.027584743 -0.002951881
