text_target_network.pth (torch, 161472 bytes, 6 tensors)

fc1.weight f4 [128, 160]
0	0xbadc9340	-0.0016828552
1	0xbd26c473	-0.040714692
2	0xbcc3e190	-0.023911268
3	0xbd85f323	-0.06540515
4	0x3c1afd88	0.009459861
5	0xbdb42d80	-0.08797741
6	0x3d9b50cd	0.07583771
7	0x3b100849	0.0021977595
8	0xbc9be9f6	-0.01903246
9	0x3da03c7d	0.07824037
10	0x3a724622	0.0009242018
11	0xbba2274c	-0.004948532
12	0xbd5829f0	-0.05277437
13	0xbd6be2e4	-0.057589427
14	0x3d652eab	0.05595271
15	0x3ce0ddab	0.02744945
16	0xbd764877	-0.0601277
17	0x3d8a3d78	0.067500055
18	0x3d9f3a17	0.07774752
19	0xbc21cb1e	-0.009875087
20	0xbb9ed09f	-0.004846647
21	0xbd6bdb7d	-0.057582367
22	0xbcc6d867	-0.02427311
23	0x3e2fea35	0.17179187
24	0xbcd098fd	-0.025463575
25	0x3dad8b19	0.084737964
26	0xbc0d9bbb	-0.008643086
27	0xbd9a7a1c	-0.07542822
28	0x3dba8c96	0.09108846
29	0x3d009d18	0.031399816
30	0xbda513ba	-0.08060403
31	0xbd626922	-0.055276044
32	0xbd553f96	-0.052062593
33	0x3d0f5b36	0.034999095
34	0xbd028cc2	-0.03187252
35	0xbd36cb19	-0.044627283
36	0x3e0186fa	0.12649146
37	0x3d900d23	0.07033756
38	0x3d515a3f	0.051111456
39	0x3d547882	0.051872738
40	0xbd7b0ad6	-0.06128963
41	0x3d3f967c	0.046774372
42	0xbd6d85e1	-0.057989005
43	0xbd3b1831	-0.045677368
44	0x3d5528a9	0.05204073
45	0x3d5f73df	0.054553863
46	0xbdc19abb	-0.094533406
47	0x3db0f96d	0.08641324
48	0x3c6309bd	0.013857302
49	0x3d7546c7	0.05988195
50	0xbd1d15ae	-0.038350753
51	0x391772f2	0.00014443303
52	0x3d7922a4	0.06082405
53	0xbe229a42	-0.15879157
54	0x3c825f26	0.015914511
55	0x3d9da851	0.076981194
56	0xbd26fae9	-0.04076663
57	0x3bddd7bd	0.006770103
58	0xbc94292b	-0.018086037
59	0x3bbf7102	0.005842329
60	0x3cae26a2	0.021258656
61	0xbdc3a81c	-0.09553549
62	0x3cc4ac83	0.024008041
63	0x3c656d0b	0.014003049
64	0xbbd0a06c	-0.00636678
65	0xbc82c500	-0.015963078
66	0x3b35dc72	0.0027749804
67	0x3c4c5d87	0.0124734705
68	0x3dab98b8	0.08378738
69	0x3cd1db1f	0.02561718
70	0xbdccef58	-0.10006589
71	0x3d8929a1	0.06697393
72	0x3cf5dcaf	0.030012457
73	0x3d0af5df	0.033925887
74	0x3d68ac62	0.056805022
75	0x3d23f1ba	0.04002545
76	0x3caa1498	0.020761773
77	0x3dd352eb	0.1031855
78	0x3d2ee507	0.042698886
79	0xbd960441	-0.0732503
80	0xbd3fa514	-0.04678829
81	0xbbacdac7	-0.0052751037
82	0xbb92e2a1	-0.0044825827
83	0x3d13129a	0.03590641
84	0x3e35800f	0.17724632
85	0x3e2dde47	0.16979323
86	0xbc7863fd	-0.015160558
87	0x3cf75938	0.03019391
88	0x3bd6dc06	0.0065569906
89	0x3d902819	0.07038898
90	0xbd8b1d4b	-0.067926966
91	0xbd91d5e1	-0.07120872
92	0xbd354c43	-0.044262182
93	0x3c80eaba	0.015736926
94	0xbdc82da1	-0.09774328
95	0x3d2a09ca	0.04151324
96	0x3d79ae3d	0.060957182
97	0x3d1f4c99	0.03889141
98	0x3c661e8b	0.014045368
99	0x3b14d921	0.0022712427
100	0x3db5c5ab	0.08875593
101	0x3caab202	0.020836834
102	0xbdb152cf	-0.086583726
103	0x3d9f344e	0.07773648
104	0x3c90be1b	0.017668774
105	0x3d6db125	0.058030266
106	0x3bcd4fc0	0.0062656105
107	0x3d554fbe	0.052078
108	0xbd9b1a42	-0.07573368
109	0xbd4970bd	-0.04917978
110	0x3d9a8c98	0.075463474
111	0x3d452091	0.04812676
112	0xbd4c5aef	-0.04989141
113	0x3bf96376	0.0076107336
114	0x3d13ba98	0.03606662
115	0xbc8af8cf	-0.016964344
116	0x3df2cffe	0.118560776
117	0xbd9046de	-0.07044767
118	0xbd4fcd04	-0.050732628
119	0x3d9e9774	0.07743731
120	0x3c11cbfc	0.008898731
121	0xbd1860e1	-0.037201766
122	0xbd0dede3	-0.034650695
123	0x3d22eab6	0.03977462
124	0x3dd3e980	0.10347271
125	0x3c7db5b6	0.015485218
126	0x3d759d56	0.0599645
127	0xbd9462a5	-0.072453775
128	0x3c6484a3	0.013947639
129	0x3d124b7b	0.035716515
130	0xbd291c6a	-0.041286863
131	0x3d28fe8e	0.041258387
132	0xbc27e405	-0.010247235
133	0x3c4a9a5b	0.012365903
134	0xbd17c417	-0.03705224
135	0x3c13655e	0.008996336
136	0x3cbb18a6	0.022838902
137	0xbd2ab78e	-0.041678958
138	0xbd0451a3	-0.032304417
139	0x3c8c8719	0.017154263
140	0x3d40f432	0.047107883
141	0x3d88f0bc	0.066865414
142	0x3d217914	0.03942211
143	0x3e24cded	0.1609418
144	0x3c6c812e	0.014435096
145	0xbc8138a5	-0.01577408
146	0xbd945d04	-0.07244304
147	0xbc625ebb	-0.013816531
148	0x3daff288	0.08591181
149	0xbc970afb	-0.018437853
150	0x3df740d7	0.12072914
151	0x3d14c8b8	0.036324233
152	0xbd99a6d6	-0.075025246
153	0xbcde25f3	-0.027117705
154	0xbcfc91ff	-0.030831335
155	0xbcb4f25e	-0.022088226
156	0x3d75ebdc	0.060039386
157	0x3dcc68ce	0.099809274
158	0x3d7d0293	0.061770033
159	0x3e031d18	0.12804067
160	0x3ccfdcc6	0.025373828
161	0xbd911dd1	-0.07085765
162	0x3c26a08e	0.010170115
163	0x3d41d52b	0.047322433
164	0xbd1305da	-0.035894252
165	0xbd93ce52	-0.07217087
166	0x3d837d60	0.06420398
167	0x3ce293dc	0.027658395
168	0xbc892068	-0.016739085
169	0x3cfe47dc	0.031040125
170	0xbc7dcb68	-0.01549039
171	0x3d8db7ec	0.06919846
172	0x3d8607ea	0.06544478
173	0xbd6223a1	-0.05520976
174	0xbd9a9913	-0.07548728
175	0xbc102eb3	-0.008800196
176	0x3d222341	0.039584402
177	0x3d3bc478	0.045841664
178	0xbd236fa7	-0.0399014
179	0xbd6a4bc0	-0.057201147
180	0x3c07238e	0.008248223
181	0xbb2e6f79	-0.0026616736
182	0x3d87d2fe	0.066320404
183	0x3bafdfb8	0.0053672455
184	0x3bb53dba	0.00553104
185	0xbd2992f2	-0.041399904
186	0xbca2fa3e	-0.019894715
187	0x3d07f7c1	0.03319526
188	0xbb0694b3	-0.002053541
189	0x3ca841ff	0.020539282
190	0xbd9425b6	-0.07233755
191	0x3cc5807e	0.024109121
192	0xbd9339f7	-0.0718879
193	0x3da1434d	0.07874165
194	0xbd96d34c	-0.073645204
195	0xbda145cf	-0.07874643
196	0xbd48019d	-0.048829664
197	0xbc8ccf9d	-0.017188841
198	0x3c314f37	0.010822109
199	0xbd599a00	-0.05312538
200	0xbd75556f	-0.05989593
201	0xbc3f0470	-0.011658773
202	0x3d356ba6	0.044292115
203	0xbd880a06	-0.06642537
204	0x3d37c799	0.044868086
205	0xbb0adce7	-0.0021188797
206	0x3ce25b0f	0.02763131
207	0x3cc720b5	0.024307588
208	0xbcba8521	-0.022768559
209	0xbda04edd	-0.07827542
210	0xbd0fad82	-0.03507758
211	0xbd93c9ad	-0.07216201
212	0x3cf4ed67	0.029898359
213	0xbd6e0808	-0.058113128
214	0x3d16c158	0.03680548
215	0x3b41026e	0.002945091
216	0xbd73f0a9	-0.059555683
217	0x3d617c83	0.055050384
218	0xbc150ea7	-0.009097732
219	0xbd24d57b	-0.040242653
220	0xbcf98e96	-0.030463498
221	0x3d0151d8	0.031572193
222	0x3cbf889e	0.023380574
223	0xbd0b81c1	-0.03405929
224	0xbd14a30e	-0.036288314
225	0x3d1b740a	0.03795246
226	0xbcceb445	-0.025232444
227	0x3d18d2f5	0.03731056
228	0x3d7b6075	0.061371285
229	0xbc8719fd	-0.016491884
230	0xbce9d317	-0.028543038
231	0x3d7a230c	0.06106858
232	0xbd1643d8	-0.036685795
233	0x3d67d467	0.056599047
234	0x3cb7cea7	0.022437407
235	0xbcd6846e	-0.026186194
236	0xbd8f3090	-0.069916844
237	0xbd5b1549	-0.053487096
238	0xbc115a34	-0.008871604
239	0xbd09cc30	-0.033641994
240	0x3d0691bc	0.032853827
241	0x3d903050	0.07040465
242	0x3d7c457f	0.061589714
243	0xbd396e8d	-0.045271445
244	0x3d82be0d	0.063839056
245	0x3d6deb3f	0.058085676
246	0x3d07cebc	0.03315614
247	0xbcdc63b8	-0.026903018
248	0x3da09f50	0.078428864
249	0xbd30c54f	-0.04315692
250	0x3d930b79	0.071799226
251	0xbd7a5e12	-0.06112487
252	0xbd0a33f8	-0.033740968
253	0x3c8b5fd2	0.017013464
254	0x3d84b711	0.0648023
255	0xbd3e5c96	-0.046475016

fc1.bias f4 [128]
0	0xbd34b1cd	-0.044114877
1	0x3d9233e6	0.07138805
2	0xbd70432b	-0.058657806
3	0xbc817700	-0.015803814
4	0xbd732460	-0.05936086
5	0xbcaf2960	-0.021382034
6	0xbd706056	-0.058685623
7	0x3d03ad1b	0.032147508
8	0x3b99bd78	0.004691776
9	0xbd6dd68b	-0.058065932
10	0xbd679593	-0.05653913
11	0x3c7e6cae	0.015528841
12	0xbd90f6fa	-0.07078357
13	0x3d853a96	0.06505315
14	0x3d772760	0.060340285
15	0x3d833dff	0.06408309
16	0xbd8e2bb7	-0.06941932
17	0xbc252631	-0.010079906
18	0x3d5cefc3	0.053939592
19	0xbd861b82	-0.065482154
20	0x3c4178e6	0.01180861
21	0x3c9eb418	0.019372985
22	0xbd97e377	-0.07416432
23	0xbd872705	-0.06599239
24	0x3ca1fb5c	0.019773178
25	0x3b1c02c7	0.0023805366
26	0x3ca8c072	0.020599578
27	0x3d93ab79	0.0721044
28	0x3c8a8c9e	0.016912755
29	0x3cb8ac87	0.022543205
30	0xbd97be62	-0.074093595
31	0x3cb7f5d4	0.022456087
32	0xbcb6b753	-0.022304213
33	0xbd277847	-0.04088619
34	0x3ab9031e	0.0014115309
35	0x3d1b1493	0.037861418
36	0x3d67e623	0.05661596
37	0x3c586860	0.013208479
38	0x3d643f15	0.055724222
39	0x3d9b7f6c	0.07592663
40	0x3d78b310	0.060717642
41	0xbd526994	-0.05137022
42	0x3cd13bec	0.025541268
43	0xbc9f0b92	-0.019414697
44	0x3d890319	0.06690044
45	0x3c1db2e7	0.009625173
46	0x3d66cb14	0.056346014
47	0x3d192c69	0.03739587
48	0xbaa746d5	-0.0012762198
49	0x3ce92a39	0.028462516
50	0xbcd79260	-0.026314914
51	0xbcb06044	-0.021530278
52	0xbd2d1633	-0.0422575
53	0x3ced7231	0.028985115
54	0x3daba462	0.08380963
55	0x3d54a39a	0.051913835
56	0x3cd0dbb3	0.025495386
57	0xbd95f1bd	-0.073214985
58	0x3d1a4526	0.0376636
59	0x3d997e2b	0.07494768
60	0x3d81ca3b	0.063374005
61	0xbb92cf6f	-0.0044802944
62	0x3c808424	0.01568801
63	0xbdaa7a50	-0.083241105
64	0x3d9b1abd	0.07573459
65	0xbd5de2bb	-0.054171305
66	0xbc12c9b3	-0.008959222
67	0xbd984996	-0.074359104
68	0x3d881e5f	0.06646418
69	0xbbb8400f	-0.0056228708
70	0x3d5476bd	0.05187105
71	0xbca2f495	-0.019892016
72	0xbc94248b	-0.018083831
73	0xbda999d4	-0.082812935
74	0x3d1ebccc	0.03875427
75	0x3cbc827c	0.023011439
76	0xbd1b2478	-0.037876576
77	0xbd855ba6	-0.06511621
78	0x3b041dab	0.0020159285
79	0xbd4310c0	-0.047623396
80	0xbc747fa2	-0.014923008
81	0x3d640058	0.05566439
82	0xbd91f427	-0.071266465
83	0x3d870ca8	0.06594211
84	0x3b9e01c6	0.0048219888
85	0xbd683388	-0.05668977
86	0x3c02ab49	0.007975408
87	0x3d9e5ca7	0.07732516
88	0x3d0c2141	0.0342114
89	0xbd82851b	-0.06373044
90	0xbd8d0933	-0.0688652
91	0x3d7c743f	0.0616343
92	0xbd7a20ce	-0.06106644
93	0x3cc5e816	0.024158519
94	0x3c83fdc9	0.016112225
95	0xbd179647	-0.03700855
96	0x3c8352bf	0.016030667
97	0xbc13295c	-0.008982029
98	0xbd876780	-0.06611538
99	0xbbf217b2	-0.0073880786
100	0x3d61a7f9	0.05509183
101	0xbd1143d7	-0.035465088
102	0x3d53ed17	0.05173978
103	0xbd8db68c	-0.06919584
104	0x3d37b66b	0.0448517
105	0xbd69b8f5	-0.057061154
106	0xbd572a20	-0.052530408
107	0x3caa7b45	0.020810733
108	0xbc87457b	-0.016512623
109	0x3d232174	0.039826825
110	0x3da24a06	0.07924275
111	0xbd847481	-0.06467534
112	0xbcc33938	-0.023830995
113	0xbcee11b6	-0.02906118
114	0x3d2f1b0e	0.04275041
115	0xbd20aea1	-0.03922904
116	0xbab61a43	-0.0013893325
117	0x3cce0e82	0.025153402
118	0x3cf65b8b	0.030072948
119	0x3c2e704e	0.010646893
120	0xbc8fbd27	-0.01754625
121	0x3cfdfcb3	0.031004285
122	0xbc10d1b7	-0.008839062
123	0x3b8ff16e	0.0043927943
124	0xbc7b1477	-0.015324703
125	0xbcbc9e21	-0.02302462
126	0x3c621df7	0.0138010895
127	0xbca2535a	-0.019815136

fc2.weight f4 [128, 128]
0	0x3d86421a	0.065555766
1	0xbd8c2370	-0.06842697
2	0xbd3932b7	-0.04521438
3	0xbd5c13ce	-0.053729825
4	0xbd20ca74	-0.039255574
5	0x3d853da3	0.06505897
6	0xbd17588c	-0.03694968
7	0x3d81acf2	0.06331815
8	0x3c85e204	0.016343124
9	0x3d420531	0.047368232
10	0x3d89e903	0.067338966
11	0xbd3a9864	-0.045555487
12	0xbc168798	-0.0091876015
13	0xbcb16ff1	-0.021659823
14	0x3cf535e4	0.029932924
15	0x3bba50bd	0.0056858943
16	0x3d8145e5	0.063121594
17	0x3bc2eebc	0.0059488695
18	0xbd18d6ef	-0.03731435
19	0xbd8c5240	-0.068516254
20	0xbda24937	-0.07924121
21	0x3da42c07	0.0801621
22	0x3da74f12	0.08169378
23	0xbd8c1216	-0.06839387
24	0xbc249380	-0.010044932
25	0xbc8ce38d	-0.017198348
26	0xbc0887ef	-0.00833319
27	0x3d31fe59	0.043455455
28	0xbcf7382d	-0.030178154
29	0xbd6676b1	-0.056265537
30	0xbd2015dd	-0.03908335
31	0xbc8fe898	-0.017566964
32	0x3d0cdf27	0.034392502
33	0xbd8afbc4	-0.06786302
34	0x3ac6693f	0.0015137567
35	0xbc22683e	-0.009912549
36	0x3d58863e	0.0528624
37	0xbcf7ba43	-0.030240184
38	0x3d3bb6be	0.045828573
39	0xbd4c8681	-0.04993296
40	0xbb550f36	-0.0032510287
41	0x3d8d36d4	0.06895223
42	0x3d25b3c4	0.04045464
43	0xbbaedbed	-0.005336276
44	0x3d37b24a	0.044847764
45	0x3d1f51eb	0.038896482
46	0xbd3c585d	-0.045982707
47	0x3a7f38aa	0.00097359216
48	0xbdae9b48	-0.08525711
49	0x3d6906cf	0.05689126
50	0x3d440d9c	0.04786454
51	0xbd5cc05c	-0.053894386
52	0x3dad4173	0.08459749
53	0xbd524aa5	-0.051340718
54	0x3d518d62	0.051160224
55	0xbd4aa60f	-0.049474772
56	0x3d2ab711	0.041678492
57	0xbcd0c57e	-0.025484797
58	0x3da16fcd	0.078826524
59	0xbabee042	-0.0014562684
60	0x3da0a721	0.07844377
61	0xbd4fed5a	-0.050763465
62	0xbc5ee844	-0.013605181
63	0xbc1ae517	-0.009454033
64	0xbc96e807	-0.018421186
65	0xbd27907e	-0.040909283
66	0x3d813508	0.06308943
67	0x3d6c20c7	0.057648446
68	0x3c299050	0.010349348
69	0x3d93dc48	0.0721975
70	0xbd71c771	-0.059028093
71	0xbc4c1f25	-0.012458597
72	0x3cc783fb	0.024354925
73	0xbcd2e142	-0.025742177
74	0xbb31d0b6	-0.0027132458
75	0xbd95dc29	-0.07317383
76	0x3d8a6c2e	0.06758915
77	0x3d123b21	0.03570092
78	0x3d2b1048	0.041763574
79	0xbc8f88f1	-0.017521353
80	0x3d85270b	0.065015875
81	0x3d0f0896	0.034920298
82	0x3cfcbca5	0.030851671
83	0x3d96fe7a	0.07372756
84	0xbd844b39	-0.0645966
85	0xbd7aebf1	-0.061260168
86	0xbcce1d2b	-0.025160393
87	0xbd693525	-0.05693545
88	0xbc7c7578	-0.015408866
89	0x3d9698bf	0.07353353
90	0x3d1821d1	0.037141625
91	0xbd80b7f4	-0.06285086
92	0xbd9ddf61	-0.07708622
93	0x3d3b7430	0.045765102
94	0x3d956bfd	0.07295988
95	0xbcb04f4a	-0.021522183
96	0xbc27e82e	-0.010248227
97	0xbda6a09c	-0.081361026
98	0x3d755c84	0.059902683
99	0xbca1f8e0	-0.019771993
100	0x3dae4996	0.08510129
101	0x3d073004	0.033004776
102	0xbd1c5ff7	-0.038177457
103	0xbdb46af9	-0.08809466
104	0xbd83b9c4	-0.06431916
105	0xbd5610e3	-0.0522622
106	0xbc9561cb	-0.018235108
107	0xbcc9a11d	-0.024612958
108	0xbb8901e9	-0.004181136
109	0x3d27be2f	0.040952858
110	0xbc2e727a	-0.0106474105
111	0x3d3a2f76	0.04545542
112	0xbd9cbb66	-0.07652931
113	0xbd912fbe	-0.07089184
114	0x3d389211	0.045061175
115	0x3db0a270	0.086247325
116	0x3d3a17ba	0.045432784
117	0x3da13a03	0.07872393
118	0xbd83ba12	-0.064319745
119	0x3cb5e2a1	0.022202792
120	0xbda772e8	-0.081762135
121	0xbd0c2a8b	-0.03422026
122	0x3d518c48	0.051159173
123	0x3d875539	0.06608052
124	0xbcb240d9	-0.021759437
125	0xbcb230b8	-0.021751747
126	0xbd4e85e6	-0.050420664
127	0xbd3aceae	-0.04560726
128	0xbc59cc4b	-0.013293336
129	0xbc8fdc2d	-0.017561043
130	0x3da91a18	0.0825693
131	0x3d142c42	0.03617502
132	0x3c6bb29d	0.014385846
133	0x3d9c9303	0.07645228
134	0x3ba72a75	0.005101497
135	0xbc8275f6	-0.015925389
136	0x3da3f6c4	0.08006051
137	0xbc845b79	-0.016156899
138	0x3d62f5ea	0.055410303
139	0xbca023a8	-0.019548252
140	0xbc99d772	-0.01877949
141	0xbda6fb2c	-0.08153376
142	0x3cdc7da9	0.026915388
143	0xbd3d6601	-0.046239857
144	0x3d948767	0.072523884
145	0x3d05e057	0.03268465
146	0x3d0625a4	0.03275074
147	0xbd1ae808	-0.03781894
148	0xbd6ae59f	-0.05734789
149	0xbcc7ee2e	-0.024405565
150	0xbcd5a7c2	-0.02608097
151	0x3ce3eb4b	0.027822157
152	0xbd930001	-0.07177735
153	0xba81e62c	-0.0009910516
154	0xbcd91206	-0.026497852
155	0x3d1238d3	0.035698723
156	0xbd97d367	-0.07413369
157	0x3d504bda	0.050853588
158	0x3d4b01ca	0.049562253
159	0x3c1b37f7	0.009473792
160	0xbb42f99b	-0.0029750827
161	0x3d1339c9	0.03594378
162	0x3db0b73c	0.08628699
163	0xbd75fb47	-0.06005409
164	0x3da202f7	0.07910722
165	0x3d53a765	0.05167331
166	0x3bd7a251	0.006580629
167	0x3dbf2ad3	0.0933434
168	0x3d0cdab3	0.034388255
169	0xbd83e1e2	-0.06439568
170	0x3d9bed81	0.0761366
171	0xbcd3299b	-0.025776675
172	0x3992d024	0.00028002367
173	0x3d989c6f	0.07451712
174	0x3d815ff5	0.063171305
175	0xbda157ed	-0.07878099
176	0xbb94672b	-0.0045289
177	0x3d38a756	0.04508146
178	0x3d7f0665	0.062261958
179	0xbd880053	-0.06640687
180	0xbd9058ef	-0.07048213
181	0x3c4a615c	0.012352314
182	0x3cb54350	0.022126824
183	0xbc6c62c8	-0.014427848
184	0xbd77d751	-0.060508076
185	0xbd9646ba	-0.07337709
186	0x3d86063b	0.06544157
187	0x3cef6a12	0.029225383
188	0x3d973dea	0.07384856
189	0xbc80089c	-0.015629105
190	0x3d52386a	0.051323332
191	0xbd651a5d	-0.055933345
192	0x3d384377	0.044986214
193	0x3d3c600b	0.04599003
194	0x3cb6fc85	0.022337208
195	0xbd14151f	-0.036152955
196	0xbc2382e3	-0.009979936
197	0xbd64b8c7	-0.05584028
198	0xbc6d219a	-0.014473343
199	0x3dad7b71	0.0847081
200	0xbd28869f	-0.04114401
201	0x3d440f17	0.047865953
202	0xbd0b093e	-0.03394436
203	0x3d4472d3	0.047961067
204	0x3db4375e	0.08799623
205	0xbca60195	-0.020264426
206	0xbd2ffe9a	-0.042967416
207	0xbd48fb31	-0.04906768
208	0x3cf0ecba	0.029409755
209	0xbce4c00a	-0.027923603
210	0x3dad91e2	0.084750906
211	0x3d19813a	0.037476756
212	0x3d63a9b2	0.055581756
213	0xbd57e95d	-0.052712787
214	0x3d9b6a17	0.075885944
215	0xbdaca768	-0.08430368
216	0x3db44513	0.08802237
217	0xbc06216f	-0.008186682
218	0x3d0226b0	0.031775177
219	0x3da2bbe2	0.07945992
220	0xbd9ae953	-0.07564034
221	0xbba3972f	-0.0049923877
222	0xbd7ffd42	-0.062497385
223	0xbd94c016	-0.072632
224	0xbb1646da	-0.0022930414
225	0xbd2088fb	-0.039193135
226	0xbc865229	-0.016396599
227	0x3d5bc01d	0.05365001
228	0x3d98b6d0	0.07456744
229	0x3d2fb5c8	0.04289797
230	0xbd728d78	-0.059216946
231	0xbcd0920d	-0.025460267
232	0x3ccbd149	0.024880068
233	0x3d0f6282	0.035006054
234	0x3c27e044	0.01024634
235	0x3d73433d	0.059390295
236	0x3d730a6e	0.05933612
237	0x3c27336d	0.010205132
238	0xbd66eb0e	-0.05637651
239	0x3d7dfb21	0.062007073
240	0xbd0d2670	-0.034460485
241	0x3d7b43d9	0.061344
242	0xbd66cd4a	-0.056348123
243	0x3d968704	0.07349971
244	0x38db6705	0.00010461923
245	0xbd63f2af	-0.055651363
246	0x3d6393f6	0.05556103
247	0x3d35ccb2	0.044384666
248	0xbda3e9e6	-0.08003597
249	0x3be0af29	0.006856818
250	0x3d7aecf3	0.06126113
251	0xbdc3d8d7	-0.09562843
252	0x3db1be70	0.08678901
253	0xbd05e3f5	-0.0326881
254	0xbb8886f6	-0.004166479
255	0x3d7d66cb	0.06186561

fc2.bias f4 [128]
0	0x3b6d063f	0.0036167053
1	0xbd21d6af	-0.03951138
2	0xbd5f977d	-0.05458783
3	0x3d9c602d	0.076355316
4	0xbbbe57ff	-0.00580883
5	0xbd976bae	-0.07393585
6	0x3d91c08c	0.071168035
7	0xbd80a63e	-0.06281708
8	0xbb6da41f	-0.0036261154
9	0xbd28b030	-0.04118365
10	0x3dc8d1bf	0.09805631
11	0xbd186068	-0.037201315
12	0xbcab3423	-0.020898884
13	0xbd939fb4	-0.07208195
14	0xbc9a5823	-0.018840855
15	0xbcd94050	-0.026519924
16	0xbcdea46e	-0.027178016
17	0xbcd9f7ce	-0.02660742
18	0xbce048b3	-0.027378416
19	0xbd209486	-0.039204143
20	0xba9e9c6c	-0.0012101061
21	0xbc392854	-0.011301119
22	0x3d22503a	0.03962729
23	0xbb2db947	-0.002650814
24	0x3d092e5a	0.03349147
25	0xbd2c413f	-0.04205441
26	0xbc46993b	-0.012121494
27	0x3d1b91e6	0.037980936
28	0xbda39a6f	-0.0798844
29	0x3c4cfdb4	0.012511659
30	0x3d81c4fa	0.063363984
31	0xbd14d4ca	-0.036335744
32	0xbd2e8d1a	-0.042615034
33	0xbd6d550e	-0.057942443
34	0xbc390f9c	-0.0112952255
35	0xbce2e03f	-0.02769482
36	0x3c91510c	0.017738841
37	0xbd1889fa	-0.03724096
38	0xbc0bc462	-0.008530708
39	0x3cef678c	0.02922418
40	0xbd84f49b	-0.06491967
41	0xbce472a8	-0.027886704
42	0xbca5444e	-0.020174172
43	0x3db35108	0.0875569
44	0xbc0bbf51	-0.0085295
45	0x3d16724d	0.0367301
46	0x3d29e8b0	0.041481674
47	0xbcf48d23	-0.029852455
48	0x3d451a01	0.048120502
49	0x3da3d3c7	0.07999378
50	0xbd2d255e	-0.042271964
51	0xbd68fbb1	-0.056880657
52	0xbd3741fc	-0.044740662
53	0x3dbb973d	0.09159706
54	0xbc5229cf	-0.012827351
55	0xbd0e1fde	-0.03469836
56	0x3cca81b0	0.024720043
57	0xbd69931a	-0.057025053
58	0x3aba5bda	0.0014218048
59	0xbd9034eb	-0.07041343
60	0x3d0ee853	0.03488953
61	0xbc2f5009	-0.010700234
62	0x3d0495e3	0.032369506
63	0x3cc6f7f5	0.024288157
64	0x3c1df5b5	0.009641101
65	0xbbcab899	-0.0061865565
66	0xbd058322	-0.03259576
67	0x3d0d755b	0.034535747
68	0xbd937b1c	-0.072012156
69	0xbd071123	-0.032975327
70	0xbd7d27f3	-0.061805677
71	0xbd849b12	-0.0647489
72	0xbcea71c6	-0.028618705
73	0x3d16e689	0.03684095
74	0xbc17f549	-0.009274789
75	0x3d3c9263	0.046038043
76	0x3d9750c7	0.07388454
77	0xbd921939	-0.07133717
78	0xbd7bb20d	-0.0614491
79	0x3d97f8c0	0.07420492
80	0x3d91b401	0.07114411
81	0xbd3db625	-0.046316285
82	0x3ca2ccd3	0.019873058
83	0xbd50f745	-0.051017065
84	0xbd853909	-0.06505019
85	0xbc5856be	-0.013204275
86	0xbd07fa07	-0.03319743
87	0xbc85caed	-0.016332114
88	0x3cf96aaf	0.030446379
89	0x3db0edf9	0.0863914
90	0xba3204b0	-0.00067908596
91	0xbc20b1e0	-0.009808034
92	0xbc05b6d1	-0.008161263
93	0xbb2f900f	-0.0026788746
94	0xb985e6f3	-0.00025539807
95	0xbdb2e96f	-0.0873593
96	0x3d7b93f5	0.0614204
97	0xbd67c54a	-0.056584634
98	0xba12f927	-0.00056065846
99	0xbd2263dd	-0.03964602
100	0x3cdc87e8	0.026920274
101	0xbb94e865	-0.004544305
102	0xbdb64bb6	-0.089011595
103	0x3cd64d6e	0.026159968
104	0x3cbfb9d4	0.02340404
105	0xbd81940c	-0.06327066
106	0xbdb0e659	-0.08637685
107	0x3d3cf5e5	0.04613294
108	0xbcc29c52	-0.02375618
109	0xbcf8df45	-0.0303799
110	0xbc963570	-0.018336028
111	0xbc689bec	-0.014197331
112	0xbd495522	-0.049153455
113	0x3d9e4315	0.07727639
114	0x3d20e85c	0.039284095
115	0x3db46e43	0.08810093
116	0x3d055b03	0.0325575
117	0xbd0acd93	-0.033887457
118	0x3d329518	0.043599218
119	0xbd47f071	-0.048813287
120	0xbdb8c189	-0.09021289
121	0xbd0ee208	-0.03488353
122	0x3c0e1f88	0.00867451
123	0x3d9a5e86	0.0753756
124	0x3d851f9c	0.0650017
125	0x3ccb0306	0.024781715
126	0x3db039d5	0.086047806
127	0xba8871a9	-0.001040985

fc3.weight f4 [20, 128]
0	0xbd8458a2	-0.06462218
1	0xbcc2022f	-0.023682682
2	0xbcffc320	-0.031220973
3	0x3d77d311	0.060504023
4	0x3cc6d9f7	0.024273856
5	0xbd924731	-0.07142485
6	0x3bce7a00	0.0063011646
7	0xbca7825c	-0.020447902
8	0xbb518e99	-0.0031975864
9	0xbd5ee70b	-0.05441956
10	0xbd80e5b5	-0.06293813
11	0xbdacfe5b	-0.08446952
12	0x3c95b2f5	0.01827381
13	0x3bb1fc04	0.005431654
14	0x3d9fc292	0.07800783
15	0x3d332563	0.043736827
16	0xbd86a6c9	-0.065747805
17	0x3d9a9264	0.07547453
18	0xbcfcab47	-0.03084339
19	0xbd337f09	-0.043822322
20	0x3d756a07	0.05991557
21	0xbca61079	-0.020271527
22	0xbc87d580	-0.016581297
23	0x3d3722f2	0.04471106
24	0x3bdf4f5f	0.0068148817
25	0xbc244eea	-0.01002858
26	0xbd66e919	-0.056374643
27	0xbc532935	-0.0128882425
28	0xbdaa7e49	-0.08324868
29	0xbcbc360e	-0.022974994
30	0xbd7866ee	-0.060645036
31	0xbd118a5a	-0.035532333
32	0xbd466638	-0.048437327
33	0x3d86af24	0.06576374
34	0x3d2cd212	0.042192526
35	0xb912b107	-0.00013989593
36	0x3d01ea9a	0.031717874
37	0xbc0c11bd	-0.008549151
38	0x3d660b5b	0.056163173
39	0x3d923eb5	0.07140867
40	0xbd560617	-0.0522519
41	0x3db3a6c5	0.08772043
42	0x3d08803f	0.03332543
43	0xbd4384ff	-0.047734257
44	0xbd170519	-0.036870096
45	0x3be36108	0.0069390573
46	0x3b03e9d4	0.0020128386
47	0x3d79466b	0.06085817
48	0x3d0490bd	0.032364596
49	0x3d188914	0.037240103
50	0x3c89705a	0.016777206
51	0x3db2fe9d	0.0873997
52	0x3d2d2c42	0.042278536
53	0x3d7d56a9	0.061850224
54	0x3c0a183f	0.008428632
55	0x3db37ef9	0.087644525
56	0xbd4654e8	-0.048420817
57	0x3d8c0222	0.06836344
58	0xbd82b24f	-0.06381666
59	0xbcca6496	-0.024706166
60	0xbd8e9a51	-0.06963027
61	0x3b7090c2	0.0036707376
62	0x3cc55295	0.02408723
63	0x3d1b939f	0.03798258
64	0xbb0dee27	-0.0021656842
65	0x3d0bf5c6	0.034169935
66	0xbcdae833	-0.02672205
67	0x3d345dd4	0.044034794
68	0x3c15d266	0.009144401
69	0x3da00007	0.07812505
70	0x3cce3476	0.0251715
71	0xbd82fcd1	-0.06395877
72	0xbd0b7c73	-0.03405423
73	0x3cd9e37a	0.026597727
74	0x3d76bc94	0.060238436
75	0x3caea788	0.02132012
76	0x3d07897f	0.03309011
77	0xbd06545f	-0.032795306
78	0xbd0ca079	-0.034332726
79	0xbd03d1b3	-0.032182407
80	0xbd609ed4	-0.05483897
81	0xbda683b5	-0.0813059
82	0x3d887381	0.066626556
83	0x3cc09eff	0.023513315
84	0xbd9cad52	-0.07650246
85	0x3c041518	0.00806167
86	0xbcd190f7	-0.02558182
87	0x3d04b190	0.0323959
88	0x3c6fd012	0.01463701
89	0x3d2c8282	0.04211665
90	0x3d0b9300	0.034075737
91	0x3d96f0b0	0.07370126
92	0xbd93156f	-0.071818225
93	0x3c7ba44d	0.015358997
94	0xbced0c6f	-0.028936593
95	0x3ce603be	0.028077956
96	0xbcd2ca5e	-0.025731262
97	0xbd8d30dd	-0.068940856
98	0xbd4069da	-0.046975948
99	0x3c4082e9	0.011749961
100	0x3da4d3aa	0.08048184
101	0xbce83885	-0.028347263
102	0xbc9d55f3	-0.019206023
103	0x3d71bb6c	0.05901663
104	0xbc9f3f0c	-0.019439243
105	0x3d8fa00f	0.07012951
106	0x3c7dbf56	0.015487513
107	0x3c0c2e3e	0.008555947
108	0x3c70dd4d	0.0147012
109	0x3c57da3b	0.013174589
110	0xbccb8d0a	-0.024847526
111	0xbda479ac	-0.080310196
112	0xbc1ba495	-0.009499689
113	0x3cc5e63c	0.024157636
114	0xbd6172eb	-0.055041235
115	0xbd42b0cc	-0.047531888
116	0xbce6b00e	-0.028160121
117	0x3cce9a1b	0.025219968
118	0xbd2b1286	-0.041765712
119	0x3c21b63b	0.009870107
120	0x3c12078b	0.008912931
121	0xbce6836b	-0.028138837
122	0xbd0ad916	-0.033898436
123	0x3d31f766	0.04344883
124	0xbc051122	-0.008121761
125	0xbd12590f	-0.035729464
126	0x3d0ef119	0.034897897
127	0x3cdf4e99	0.027259158
128	0x3d71b495	0.059010107
129	0x3cf4b01d	0.029869134
130	0x3d9187ed	0.07106004
131	0xbc9ba254	-0.018998303
132	0xbd2569dd	-0.040384162
133	0xbd4195ab	-0.047261875
134	0xbd15eb15	-0.036601145
135	0x3c89815e	0.01678532
136	0xbdb1fc2a	-0.086906746
137	0xbd17a9dd	-0.03702723
138	0x3d8f080b	0.06983956
139	0xbdb39ca9	-0.08770115
140	0x3c9e4784	0.01932121
141	0x3d09d704	0.03365232
142	0xbda8c9a6	-0.082415864
143	0x3c4252a4	0.011860523
144	0xbd7f531b	-0.062335115
145	0xbd5a3846	-0.053276323
146	0x3bb81c1d	0.0056185857
147	0x3cc5234b	0.02406468
148	0x3daf88ab	0.08570989
149	0x3d991767	0.07475167
150	0x3dac19de	0.08403371
151	0x3d94978b	0.07255467
152	0x3d746b20	0.059672475
153	0xbbda8529	-0.006668706
154	0x3d880679	0.066418596
155	0x3c3045eb	0.010758857
156	0xbda8358f	-0.082133405
157	0x3cbfdab0	0.023419708
158	0x3c33f37a	0.010983342
159	0x3c9b3159	0.01894443
160	0x3d7904a3	0.060795438
161	0x3d9fedff	0.07809066
162	0xbd915f45	-0.07098249
163	0x3da901ee	0.08252321
164	0x3d2ff4ec	0.042958185
165	0x3d3604b6	0.044438086
166	0xbd4c35c1	-0.04985595
167	0xbd039f9e	-0.032134645
168	0xbd4446e8	-0.047919184
169	0x3a88cce0	0.0010437034
170	0x3ca748dc	0.020420484
171	0xbd270993	-0.040780615
172	0xbd9d5d71	-0.07683838
173	0x3c41fc32	0.011839913
174	0x3d859a0e	0.06523524
175	0xbd86a3c2	-0.06574203
176	0xbd907aaf	-0.0705465
177	0x3da45679	0.08024306
178	0x3d63606f	0.055511888
179	0x3dac673c	0.08418128
180	0xbd559740	-0.052146196
181	0xbd7f4460	-0.062321067
182	0x3bfa4fb2	0.007638895
183	0xbbf88e6b	-0.007585337
184	0xbd8159f7	-0.063159876
185	0x3c688bd9	0.0141934985
186	0xbd935c68	-0.071953595
187	0x3d3b255e	0.045689933
188	0xbaae77b2	-0.0013310818
189	0xbd8b7e84	-0.0681124
190	0x3d821e74	0.06353465
191	0x3d97df1c	0.074156016
192	0xbd97df4a	-0.07415636
193	0x3db4a11f	0.08819794
194	0xbd49a47c	-0.04922913
195	0x3d89db5e	0.06731294
196	0x3d9d4c13	0.07680526
197	0xbd9eee1a	-0.07760258
198	0xbda1ab90	-0.07894051
199	0x3d3cd9b6	0.046106063
200	0x3d9d874a	0.0769182
201	0x3d9d6897	0.076859646
202	0x3d42144e	0.047382645
203	0x3da3c73c	0.07996985
204	0x3d91acfa	0.07113071
205	0xbbd390d8	-0.0064564757
206	0x3daaa444	0.083321124
207	0x3d57963a	0.0526335
208	0x3cb335ba	0.021876205
209	0xbd56f685	-0.052481193
210	0xbd898dd7	-0.06716507
211	0xbd6d4b55	-0.05793317
212	0xbd9e62da	-0.07733698
213	0x3ca18ba0	0.019719899
214	0xbd2989d9	-0.041391227
215	0xbcd094bf	-0.025461553
216	0x3d38e6b0	0.045141876
217	0x3d01935d	0.031634677
218	0x3c5d5105	0.013508086
219	0x3dae86c9	0.08521802
220	0xbc7f39d1	-0.015577749
221	0xbd135a2b	-0.035974663
222	0x3c49dabe	0.012320219
223	0xbceb711a	-0.028740454
224	0x3c9a51e7	0.018837882
225	0x3cbc9e6c	0.02302476
226	0xbd3be476	-0.045872174
227	0xbb192912	-0.0023370427
228	0xbcff7ac9	-0.031186478
229	0x3daa0139	0.083010145
230	0xbd432c8a	-0.047649898
231	0xbd1a0d96	-0.037610613
232	0x3dae0531	0.08497084
233	0xbcf4b24d	-0.029870177
234	0x3d8b53cf	0.068030946
235	0xbd820fa7	-0.06350642
236	0xbd358032	-0.04431171
237	0xbdb0e081	-0.08636571
238	0x3d1f22a1	0.038851384
239	0x3d53a1d6	0.05166801
240	0x3da90856	0.08253543
241	0x3d1617b2	0.03664369
242	0x3caaf2e8	0.02086778
243	0xbcce000c	-0.025146507
244	0xbd1c110c	-0.038102195
245	0x3b91e085	0.0044518136
246	0x3d87c0ae	0.066285476
247	0xbd4feff0	-0.05076593
248	0xbdb3b843	-0.087753795
249	0xbbe68c9c	-0.007035805
250	0xbd8bb1c7	-0.06821018
251	0x3c3fb294	0.011700291
252	0x3dacc73e	0.0843644
253	0x3c09ee87	0.008418686
254	0xbc663099	-0.0140496725
255	0xbd88176f	-0.066450946

fc3.bias f4 [20]
0	0xbbc8be22	-0.006126181
1	0x3d13ecd9	0.036114547
2	0xbb80e375	-0.003933365
3	0xbca7f1c0	-0.020501018
4	0xbc412805	-0.011789327
5	0x3dad45b0	0.084605575
6	0x3cf281d5	0.029602924
7	0x3d9cb478	0.07651609
8	0x3d8b6378	0.068060815
9	0x3d86d757	0.065840416
10	0xbdb383f2	-0.08765401
11	0xbcc2746d	-0.023737157
12	0xbd81c827	-0.06337004
13	0x3bf979d8	0.007613402
14	0x3ca8969d	0.02057963
15	0x3c72093f	0.014772712
16	0xbd83a444	-0.064278156
17	0xbda63ac7	-0.0811668
18	0x3ce1f966	0.027584743
19	0xbb417458	-0.002951881
